…
      sampler {
        min_scale: 0.3
        max_scale: 1
        min_aspect_ratio: 0.5
        max_aspect_ratio: 2
      }
      sample_constraint {
        min_jaccard_overlap: 0.9
      }
      max_sample: 1
      max_trials: 50
    }
    batch_sampler {
      sampler {
        min_scale: 0.3
        max_scale: 1
        min_aspect_ratio: 0.5
        max_aspect_ratio: 2
      }
      sample_constraint {
        max_jaccard_overlap: 1
      }
      max_sample: 1
      max_trials: 50
    }
    label_map_file: "data/chn/labelmap_voc.prototxt"
  }
}
layer {
  name: "conv1_1"
  type: "Convolution"
  bottom: "data"
  top: "conv1_1"
  param {
    lr_mult: 1
    decay_mult: 1
  }
  param {
    lr_mult: 2
    decay_mult: 0
  }
  convolution_param {
    num_output: 64
    pad: 1
    kernel_size: 3
    weight_filler {
      type: "xavier"
    }
    bias_filler {
      type: "constant"
      value: 0
    }
  }
}
layer {
  name: "relu1_1"
  type: "ReLU"
  bottom: "conv1_1"
  top: "conv1_1"
}
layer {
  name: "conv1_2"
  type: "Convolution"
  bottom: "conv1_1"
  top: "conv1_2"
  param {
    lr_mult: 1
    decay_mult: 1
  }
  param {
    lr_mult: 2
    decay_mult: 0
  }
  convolution_param {
    num_output: 64
    pad: 1
    kernel_size: 3
    weight_filler {
      type: "xavier"
    }
    bias_filler {
      type: "constant"
      value: 0
    }
  }
}
layer {
  name: "relu1_2"
  type: "ReLU"
  bottom: "conv1_2"
  top: "conv1_2"
}
layer {
  name: "pool1"
  type: "Pooling"
  bottom: "conv1_2"
  top: "pool1"
  pooling_param {
    pool: MAX
    kernel_size: 2
    stride: 2
  }
}
layer {
  name: "conv2_1"
  type: "Convolution"
  bottom: "pool1"
  top: "conv2_1"
  param {
    lr_mult: 1
    decay_mult: 1
  }
  param {
    lr_mult: 2
    decay_mult: 0
  }
  convolution_param {
    num_output: 128
    pad: 1
    kernel_size: 3
    weight_filler {
      type: "xavier"
    }
    bias_filler {
      type: "constant"
      value: 0
    }
  }
}
layer {
  name: "relu2_1"
  type: "ReLU"
  bottom: "conv2_1"
  top: "conv2_1"
}
layer {
  name: "conv2_2"
  type: "Convolution"
  bottom: "conv2_1"
  top: "conv2_2"
  param {
    lr_mult: 1
    decay_mult: 1
  }
  param {
    lr_mult: 2
    decay_mult: 0
  }
  convolution_param {
    num_output: 128
    pad: 1
    kernel_size: 3
    weight_filler {
      type: "xavier"
    }
    bias_filler {
      type: "constant"
      value: 0
    }
  }
}
layer {
  name: "relu2_2"
  type: "ReLU"
  bottom: "conv2_2"
  top: "conv2_2"
}
layer {
  name: "pool2"
  type: "Pooling"
  bottom: "conv2_2"
  top: "pool2"
  pooling_param {
    pool: MAX
    kernel_size: 2
    stride: 2
  }
}
layer {
  name: "conv3_1"
  type: "Convolution"
  bottom: "pool2"
  top: "conv3_1"
  param {
    lr_mult: 1
    decay_mult: 1
  }
  param {
    lr_mult: 2
    decay_mult: 0
  }
  convolution_param {
    num_output: 256
    pad: 1
    kernel_size: 3
    weight_filler {
      type: "xavier"
    }
    bias_filler {
      type: "constant"
      value: 0
    }
  }
}
layer {
  name: "relu3_1"
  type: "ReLU"
  bottom: "conv3_1"
  top: "conv3_1"
}
layer {
  name: "conv3_2"
  type: "Convolution"
  bottom: "conv3_1"
  top: "conv3_2"
  param {
    lr_mult: 1
    decay_mult: 1
  }
  param {
    lr_mult: 2
    decay_mult: 0
  }
  convolution_param {
    num_output: 256
    pad: 1
    kernel_size: 3
    weight_filler {
      type: "xavier"
    }
    bias_filler {
      type: "constant"
      value: 0
    }
  }
}
layer {
  name: "relu3_2"
  type: "ReLU"
  bottom: "conv3_2"
  top: "conv3_2"
}
layer {
  name: "conv3_3"
  type: "Convolution"
  bottom: "conv3_2"
  top: "conv3_3"
  param {
    lr_mult: 1
    decay_mult: 1
  }
  param {
    lr_mult: 2
    decay_mult: 0
  }
  convolution_param {
    num_output: 256
    pad: 1
    kernel_size: 3
    weight_filler {
      type: "xavier"
    }
    bias_filler {
      type: "constant"
      value: 0
    }
  }
}
layer {
  name: "relu3_3"
  type: "ReLU"
  bottom: "conv3_3"
  top: "conv3_3"
}
layer {
  name: "pool3"
  type: "Pooling"
  bottom: "conv3_3"
  top: "pool3"
  pooling_param {
    pool: MAX
    kernel_size: 2
    stride: 2
  }
}
layer {
  name: "conv4_1"
  type: "Convolution"
  bottom: "pool3"
  top: "conv4_1"
  param {
    lr_mult: 1
    decay_mult: 1
  }
  param {
    lr_mult: 2
    decay_mult: 0
  }
  convolution_param {
    num_output: 512
    pad: 1
    kernel_size: 3
    weight_filler {
      type: "xavier"
    }
    bias_filler {
      type: "constant"
      value: 0
    }
  }
}
layer {
  name: "relu4_1"
  type: "ReLU"
  bottom: "conv4_1"
  top: "conv4_1"
}
layer {
  name: "conv4_2"
  type: "Convolution"
  bottom: "conv4_1"
  top: "conv4_2"
  param {
    lr_mult: 1
    decay_mult: 1
  }
  param {
    lr_mult: 2
    decay_mult: 0
  }
  convolution_param {
    num_output: 512
    pad: 1
    kernel_size: 3
    weight_filler {
      type: "xavier"
    }
    bias_filler {
      type: "constant"
      value: 0
    }
  }
}
layer {
  name: "relu4_2"
  type: "ReLU"
  bottom: "conv4_2"
  top: "conv4_2"
}
layer {
  name: "conv4_3"
  type: "Convolution"
  bottom: "conv4_2"
  top: "conv4_3"
  param {
    lr_mult: 1
    decay_mult: 1
  }
  param {
    lr_mult: 2
    decay_mult: 0
  }
  convolution_param {
    num_output: 512
    pad: 1
    kernel_size: 3
    weight_filler {
      type: "xavier"
    }
    bias_filler {
      type: "constant"
      value: 0
    }
  }
}
layer {
  name: "relu4_3"
  type: "ReLU"
  bottom: "conv4_3"
  top: "conv4_3"
}
layer {
  name: "pool4"
  type: "Pooling"
  bottom: "conv4_3"
  top: "pool4"
  pooling_param {
    pool: MAX
    kernel_size: 2
    stride: 2
  }
}
layer {
  name: "conv5_1"
  type: "Convolution"
  bottom: "pool4"
  top: "conv5_1"
  param {
    lr_mult: 1
    decay_mult: 1
  }
  param {
    lr_mult: 2
    decay_mult: 0
  }
  convolution_param {
    num_output: 512
    pad: 1
    kernel_size: 3
    weight_filler {
      type: "xavier"
    }
    bias_filler {
      type: "constant"
      value: 0
    }
    dilation: 1
  }
}
layer {
  name: "relu5_1"
  type: "ReLU"
  bottom: "conv5_1"
  top: "conv5_1"
}
layer {
  name: "conv5_2"
  type: "Convolution"
  bottom: "conv5_1"
  top: "conv5_2"
  param {
    lr_mult: 1
    decay_mult: 1
  }
  param {
    lr_mult: 2
    decay_mult: 0
  }
  convolution_param {
    num_output: 512
    pad: 1
    kernel_size: 3
    weight_filler {
      type: "xavier"
    }
    bias_filler {
      type: "constant"
      value: 0
    }
    dilation: 1
  }
}
layer {
  name: "relu5_2"
  type: "ReLU"
  bottom: "conv5_2"
  top: "conv5_2"
}
layer {
  name: "conv5_3"
  type: "Convolution"
  bottom: "conv5_2"
  top: "conv5_3"
  param {
    lr_mult: 1
    decay_mult: 1
  }
  param {
    lr_mult: 2
    decay_mult: 0
  }
  convolution_param {
    num_output: 512
    pad: 1
    kernel_size: 3
    weight_filler {
      type: "xavier"
    }
    bias_filler {
      type: "constant"
      value: 0
    }
    dilation: 1
  }
}
layer {
  name: "relu5_3"
  type: "ReLU"
  bottom: "conv5_3"
  top: "conv5_3"
}
layer {
  name: "pool5"
  type: "Pooling"
  bottom: "conv5_3"
  top: "pool5"
  pooling_param {
    pool: MAX
    kernel_size: 3
    stride: 1
    pad: 1
  }
}
layer {
  name: "fc6"
  type: "Convolution"
  bottom: "pool5"
  top: "fc6"
  param {
    lr_mult: 1
    decay_mult: 1
  }
  param {
    lr_mult: 2
    decay_mult: 0
  }
  convolution_param {
    num_output: 1024
    pad: 6
    kernel_size: 3
    weight_filler {
      type: "xavier"
    }
    bias_filler {
      type: "constant"
      value: 0
    }
    dilation: 6
  }
}
layer {
  name: "relu6"
  type: "ReLU"
  bottom: "fc6"
  top: "fc6"
}
layer {
  name: "fc7"
  type: "Convolution"
  bottom: "fc6"
  top: "fc7"
  param {
    lr_mult: 1
    decay_mult: 1
  }
  param {
    lr_mult: 2
    decay_mult: 0
  }
  convolution_param {
    num_output: 1024
    kernel_size: 1
    weight_filler {
      type: "xavier"
    }
    bias_filler {
      type: "constant"
      value: 0
    }
  }
}
layer {
  name: "relu7"
  type: "ReLU"
  bottom: "fc7"
  top: "fc7"
}
layer {
  name: "conv6_1"
  type: "Convolution"
  bottom: "fc7"
  top: "conv6_1"
  param {
    lr_mult: 1
    decay_mult: 1
  }
  param {
    lr_mult: 2
    decay_mult: 0
  }
  convolution_param {
    num_output: 256
    pad: 0
    kernel_size: 1
    stride: 1
    weight_filler {
      type: "xavier"
    }
    bias_filler {
      type: "constant"
      value: 0
    }
  }
}
layer {
  name: "conv6_1_relu"
  type: "ReLU"
  bottom: "conv6_1"
  top: "conv6_1"
}
layer {
  name: "conv6_2"
  type: "Convolution"
  bottom: "conv6_1"
  top: "conv6_2"
  param {
    lr_mult: 1
    decay_mult: 1
  }
  param {
    lr_mult: 2
    decay_mult: 0
  }
  convolution_param {
    num_output: 512
    pad: 1
    kernel_size: 3
    stride: 2
    weight_filler {
      type: "xavier"
    }
    bias_filler {
      type: "constant"
      value: 0
    }
  }
}
layer {
  name: "conv6_2_relu"
  type: "ReLU"
  bottom: "conv6_2"
  top: "conv6_2"
}
layer {
  name: "conv7_1"
  type: "Convolution"
  bottom: "conv6_2"
  top: "conv7_1"
  param {
    lr_mult: 1
    decay_mult: 1
  }
  param {
    lr_mult: 2
    decay_mult: 0
  }
  convolution_param {
    num_output: 128
    pad: 0
    kernel_size: 1
    stride: 1
    weight_filler {
      type: "xavier"
    }
    bias_filler {
      type: "constant"
      value: 0
    }
  }
}
layer {
  name: "conv7_1_relu"
  type: "ReLU"
  bottom: "conv7_1"
  top: "conv7_1"
}
layer {
  name: "conv7_2"
  type: "Convolution"
  bottom: "conv7_1"
  top: "conv7_2"
  param {
    lr_mult: 1
    decay_mult: 1
  }
  param {
    lr_mult: 2
    decay_mult: 0
  }
  convolution_param {
    num_output: 256
    pad: 1
    kernel_size: 3
    stride: 2
    weight_filler {
      type: "xavier"
    }
    bias_filler {
      type: "constant"
      value: 0
    }
  }
}
layer {
  name: "conv7_2_relu"
  type: "ReLU"
  bottom: "conv7_2"
  top: "conv7_2"
}
layer {
  name: "conv8_1"
  type: "Convolution"
  bottom: "conv7_2"
  top: "conv8_1"
  param {
    lr_mult: 1
    decay_mult: 1
  }
  param {
    lr_mult: 2
    decay_mult: 0
  }
  convolution_param {
    num_output: 128
    pad: 0
    kernel_size: 1
    stride: 1
    weight_filler {
      type: "xavier"
    }
    bias_filler {
      type: "constant"
      value: 0
    }
  }
}
layer {
  name: "conv8_1_relu"
  type: "ReLU"
  bottom: "conv8_1"
  top: "conv8_1"
}
layer {
  name: "conv8_2"
  type: "Convolution"
  bottom: "conv8_1"
  top: "conv8_2"
  param {
    lr_mult: 1
    decay_mult: 1
  }
  param {
    lr_mult: 2
    decay_mult: 0
  }
  convolution_param {
    num_output: 256
    pad: 0
    kernel_size: 3
    stride: 1
    weight_filler {
      type: "xavier"
    }
    bias_filler {
      type: "constant"
      value: 0
    }
  }
}
layer {
  name: "conv8_2_relu"
  type: "ReLU"
  bottom: "conv8_2"
  top: "conv8_2"
}
layer {
  name: "conv9_1"
  type: "Convolution"
  bottom: "conv8_2"
  top: "conv9_1"
  param {
    lr_mult: 1
    decay_mult: 1
  }
  param {
    lr_mult: 2
    decay_mult: 0
  }
  convolution_param {
    num_output: 128
    pad: 0
    kernel_size: 1
    stride: 1
    weight_filler {
      type: "xavier"
    }
    bias_filler {
      type: "constant"
      value: 0
    }
  }
}
layer {
  name: "conv9_1_relu"
  type: "ReLU"
  bottom: "conv9_1"
  top: "conv9_1"
}
layer {
  name: "conv9_2"
  type: "Convolution"
  bottom: "conv9_1"
  top: "conv9_2"
  param {
    lr_mult: 1
    decay_mult: 1
  }
  param {
    lr_mult: 2
    decay_mult: 0
  }
  convolution_param {
    num_output: 256
    pad: 0
    kernel_size: 3
    stride: 1
    weight_filler {
      type: "xavier"
    }
    bias_filler {
      type: "constant"
      value: 0
    }
  }
}
layer {
  name: "conv9_2_relu"
  type: "ReLU"
  bottom: "conv9_2"
  top: "conv9_2"
}
layer {
  name: "conv4_3_norm"
  type: "Normalize"
  bottom: "conv4_3"
  top: "conv4_3_norm"
  norm_param {
    across_spatial: false
    scale_filler {
      type: "constant"
      value: 20
    }
    channel_shared: false
  }
}
layer {
  name: "conv4_3_norm_mbox_loc"
  type: "Convolution"
  bottom: "conv4_3_norm"
  top: "conv4_3_norm_mbox_loc"
  param {
    lr_mult: 1
    decay_mult: 1
  }
  param {
    lr_mult: 2
    decay_mult: 0
  }
  convolution_param {
    num_output: 16
    pad: 1
    kernel_size: 3
    stride: 1
    weight_filler {
      type: "xavier"
    }
    bias_filler {
      type: "constant"
      value: 0
    }
  }
}
layer {
  name: "conv4_3_norm_mbox_loc_perm"
  type: "Permute"
  bottom: "conv4_3_norm_mbox_loc"
  top: "conv4_3_norm_mbox_loc_perm"
  permute_param {
    order: 0
    order: 2
    order: 3
    order: 1
  }
}
layer {
  name: "conv4_3_norm_mbox_loc_flat"
  type: "Flatten"
  bottom: "conv4_3_norm_mbox_loc_perm"
  top: "conv4_3_norm_mbox_loc_flat"
  flatten_param {
    axis: 1
  }
}
layer {
  name: "conv4_3_norm_mbox_conf"
  type: "Convolution"
  bottom: "conv4_3_norm"
  top: "conv4_3_norm_mbox_conf"
  param {
    lr_mult: 1
    decay_mult: 1
  }
  param {
    lr_mult: 2
    decay_mult: 0
  }
  convolution_param {
    num_output: 8
    pad: 1
    kernel_size: 3
    stride: 1
    weight_filler {
      type: "xavier"
    }
    bias_filler {
      type: "constant"
      value: 0
    }
  }
}
layer {
  name: "conv4_3_norm_mbox_conf_perm"
  type: "Permute"
  bottom: "conv4_3_norm_mbox_conf"
  top: "conv4_3_norm_mbox_conf_perm"
  permute_param {
    order: 0
    order: 2
    order: 3
    order: 1
  }
}
layer {
  name: "conv4_3_norm_mbox_conf_flat"
  type: "Flatten"
  bottom: "conv4_3_norm_mbox_conf_perm"
  top: "conv4_3_norm_mbox_conf_flat"
  flatten_param {
    axis: 1
  }
}
layer {
  name: "conv4_3_norm_mbox_priorbox"
  type: "PriorBox"
  bottom: "conv4_3_norm"
  bottom: "data"
  top: "conv4_3_norm_mbox_priorbox"
  prior_box_param {
    min_size: 30
    max_size: 60
    aspect_ratio: 2
    flip: true
    clip: false
    variance: 0.1
    variance: 0.1
    variance: 0.2
    variance: 0.2
    step: 8
    offset: 0.5
  }
}
layer {
  name: "fc7_mbox_loc"
  type: "Convolution"
  bottom: "fc7"
  top: "fc7_mbox_loc"
  param {
    lr_mult: 1
    decay_mult: 1
  }
  param {
    lr_mult: 2
    decay_mult: 0
  }
  convolution_param {
    num_output: 24
    pad: 1
    kernel_size: 3
    stride: 1
    weight_filler {
      type: "xavier"
    }
    bias_filler {
      type: "constant"
      value: 0
    }
  }
}
layer {
  name: "fc7_mbox_loc_perm"
  type: "Permute"
  bottom: "fc7_mbox_loc"
  top: "fc7_mbox_loc_perm"
  permute_param {
    order: 0
    order: 2
    order: 3
    order: 1
  }
}
layer {
  name: "fc7_mbox_loc_flat"
  type: "Flatten"
  bottom: "fc7_mbox_loc_perm"
  top: "fc7_mbox_loc_flat"
  flatten_param {
    axis: 1
  }
}
layer {
  name: "fc7_mbox_conf"
  type: "Convolution"
  bottom: "fc7"
  top: "fc7_mbox_conf"
  param {
    lr_mult: 1
    decay_mult: 1
  }
  param {
    lr_mult: 2
    decay_mult: 0
  }
  convolution_param {
    num_output: 12
    pad: 1
    kernel_size: 3
    stride: 1
    weight_filler {
      type: "xavier"
    }
    bias_filler {
      type: "constant"
      value: 0
    }
  }
}
layer {
  name: "fc7_mbox_conf_perm"
  type: "Permute"
  bottom: "fc7_mbox_conf"
  top: "fc7_mbox_conf_perm"
  permute_param {
    order: 0
    order: 2
    order: 3
    order: 1
  }
}
layer {
  name: "fc7_mbox_conf_flat"
  type: "Flatten"
  bottom: "fc7_mbox_conf_perm"
  top: "fc7_mbox_conf_flat"
  flatten_param {
    axis: 1
  }
}
layer {
  name: "fc7_mbox_priorbox"
  type: "PriorBox"
  bottom: "fc7"
  bottom: "data"
  top: "fc7_mbox_priorbox"
  prior_box_param {
    min_size: 60
    max_size: 111
    aspect_ratio: 2
    aspect_ratio: 3
    flip: true
    clip: false
    variance: 0.1
    variance: 0.1
    variance: 0.2
    variance: 0.2
    step: 16
    offset: 0.5
  }
}
layer {
  name: "conv6_2_mbox_loc"
  type: "Convolution"
  bottom: "conv6_2"
  top: "conv6_2_mbox_loc"
  param {
    lr_mult: 1
    decay_mult: 1
  }
  param {
    lr_mult: 2
    decay_mult: 0
  }
  convolution_param {
    num_output: 24
    pad: 1
    kernel_size: 3
    stride: 1
    weight_filler {
      type: "xavier"
    }
    bias_filler {
      type: "constant"
      value: 0
    }
  }
}
layer {
  name: "conv6_2_mbox_loc_perm"
  type: "Permute"
  bottom: "conv6_2_mbox_loc"
  top: "conv6_2_mbox_loc_perm"
  permute_param {
    order: 0
    order: 2
    order: 3
    order: 1
  }
}
layer {
  name: "conv6_2_mbox_loc_flat"
  type: "Flatten"
  bottom: "conv6_2_mbox_loc_perm"
  top: "conv6_2_mbox_loc_flat"
  flatten_param {
    axis: 1
  }
}
layer {
  name: "conv6_2_mbox_conf"
  type: "Convolution"
  bottom: "conv6_2"
  top: "conv6_2_mbox_conf"
  param {
    lr_mult: 1
    decay_mult: 1
  }
  param {
    lr_mult: 2
    decay_mult: 0
  }
  convolution_param {
    num_output: 12
    pad: 1
    kernel_size: 3
    stride: 1
    weight_filler {
      type: "xavier"
    }
    bias_filler {
      type: "constant"
      value: 0
    }
  }
}
layer {
  name: "conv6_2_mbox_conf_perm"
  type: "Permute"
  bottom: "conv6_2_mbox_conf"
  top: "conv6_2_mbox_conf_perm"
  permute_param {
    order: 0
    order: 2
    order: 3
    order: 1
  }
}
layer {
  name: "conv6_2_mbox_conf_flat"
  type: "Flatten"
  bottom: "conv6_2_mbox_conf_perm"
  top: "conv6_2_mbox_conf_flat"
  flatten_param {
    axis: 1
  }
}
layer {
  name: "conv6_2_mbox_priorbox"
  type: "PriorBox"
  bottom: "conv6_2"
  bottom: "data"
  top: "conv6_2_mbox_priorbox"
  prior_box_param {
    min_size: 111
    max_size: 162
    aspect_ratio: 2
    aspect_ratio: 3
    flip: true
    clip: false
    variance: 0.1
    variance: 0.1
    variance: 0.2
    variance: 0.2
    step: 32
    offset: 0.5
  }
}
layer {
  name: "conv7_2_mbox_loc"
  type: "Convolution"
  bottom: "conv7_2"
  top: "conv7_2_mbox_loc"
  param {
    lr_mult: 1
    decay_mult: 1
  }
  param {
    lr_mult: 2
    decay_mult: 0
  }
  convolution_param {
    num_output: 24
    pad: 1
    kernel_size: 3
    stride: 1
    weight_filler {
      type: "xavier"
    }
    bias_filler {
      type: "constant"
      value: 0
    }
  }
}
layer {
  name: "conv7_2_mbox_loc_perm"
  type: "Permute"
  bottom: "conv7_2_mbox_loc"
  top: "conv7_2_mbox_loc_perm"
  permute_param {
    order: 0
    order: 2
    order: 3
    order: 1
  }
}
layer {
  name: "conv7_2_mbox_loc_flat"
  type: "Flatten"
  bottom: "conv7_2_mbox_loc_perm"
  top: "conv7_2_mbox_loc_flat"
  flatten_param {
    axis: 1
  }
}
layer {
  name: "conv7_2_mbox_conf"
  type: "Convolution"
  bottom: "conv7_2"
  top: "conv7_2_mbox_conf"
  param {
    lr_mult: 1
    decay_mult: 1
  }
  param {
    lr_mult: 2
    decay_mult: 0
  }
  convolution_param {
    num_output: 12
    pad: 1
    kernel_size: 3
    stride: 1
    weight_filler {
      type: "xavier"
    }
    bias_filler {
      type: "constant"
      value: 0
    }
  }
}
layer {
  name: "conv7_2_mbox_conf_perm"
  type: "Permute"
  bottom: "conv7_2_mbox_conf"
  top: "conv7_2_mbox_conf_perm"
  permute_param {
    order: 0
    order: 2
    order: 3
    order: 1
  }
}
layer {
  name: "conv7_2_mbox_conf_flat"
  type: "Flatten"
  bottom: "conv7_2_mbox_conf_perm"
  top: "conv7_2_mbox_conf_flat"
  flatten_param {
    axis: 1
  }
}
layer {
  name: "conv7_2_mbox_priorbox"
  type: "PriorBox"
  bottom: "conv7_2"
  bottom: "data"
  top: "conv7_2_mbox_priorbox"
  prior_box_param {
    min_size: 162
    max_size: 213
    aspect_ratio: 2
    aspect_ratio: 3
    flip: true
    clip: false
    variance: 0.1
    variance: 0.1
    variance: 0.2
    variance: 0.2
    step: 64
    offset: 0.5
  }
}
layer {
  name: "conv8_2_mbox_loc"
  type: "Convolution"
  bottom: "conv8_2"
  top: "conv8_2_mbox_loc"
  param {
    lr_mult: 1
    decay_mult: 1
  }
  param {
    lr_mult: 2
    decay_mult: 0
  }
  convolution_param {
    num_output: 16
    pad: 1
    kernel_size: 3
    stride: 1
    weight_filler {
      type: "xavier"
    }
    bias_filler {
      type: "constant"
      value: 0
    }
  }
}
layer {
  name: "conv8_2_mbox_loc_perm"
  type: "Permute"
  bottom: "conv8_2_mbox_loc"
  top: "conv8_2_mbox_loc_perm"
  permute_param {
    order: 0
    order: 2
    order: 3
    order: 1
  }
}
layer {
  name: "conv8_2_mbox_loc_flat"
  type: "Flatten"
  bottom: "conv8_2_mbox_loc_perm"
  top: "conv8_2_mbox_loc_flat"
  flatten_param {
    axis: 1
  }
}
layer {
  name: "conv8_2_mbox_conf"
  type: "Convolution"
  bottom: "conv8_2"
  top: "conv8_2_mbox_conf"
  param {
    lr_mult: 1
    decay_mult: 1
  }
  param {
    lr_mult: 2
    decay_mult: 0
  }
  convolution_param {
    num_output: 8
    pad: 1
    kernel_size: 3
    stride: 1
    weight_filler {
      type: "xavier"
    }
    bias_filler {
      type: "constant"
      value: 0
    }
  }
}
layer {
  name: "conv8_2_mbox_conf_perm"
  type: "Permute"
  bottom: "conv8_2_mbox_conf"
  top: "conv8_2_mbox_conf_perm"
  permute_param {
    order: 0
    order: 2
    order: 3
    order: 1
  }
}
layer {
  name: "conv8_2_mbox_conf_flat"
  type: "Flatten"
  bottom: "conv8_2_mbox_conf_perm"
  top: "conv8_2_mbox_conf_flat"
  flatten_param {
    axis: 1
  }
}
layer {
  name: "conv8_2_mbox_priorbox"
  type: "PriorBox"
  bottom: "conv8_2"
  bottom: "data"
  top: "conv8_2_mbox_priorbox"
  prior_box_param {
    min_size: 213
    max_size: 264
    aspect_ratio: 2
    flip: true
    clip: false
    variance: 0.1
    variance: 0.1
    variance: 0.2
    variance: 0.2
    step: 100
    offset: 0.5
  }
}
layer {
  name: "conv9_2_mbox_loc"
  type: "Convolution"
  bottom: "conv9_2"
  top: "conv9_2_mbox_loc"
  param {
    lr_mult: 1
    decay_mult: 1
  }
  param {
    lr_mult: 2
    decay_mult: 0
  }
  convolution_param {
    num_output: 16
    pad: 1
    kernel_size: 3
    stride: 1
    weight_filler {
      type: "xavier"
    }
    bias_filler {
      type: "constant"
      value: 0
    }
  }
}
layer {
  name: "conv9_2_mbox_loc_perm"
  type: "Permute"
  bottom: "conv9_2_mbox_loc"
  top: "conv9_2_mbox_loc_perm"
  permute_param {
    order: 0
    order: 2
    order: 3
    order: 1
  }
}
layer {
  name: "conv9_2_mbox_loc_flat"
  type: "Flatten"
  bottom: "conv9_2_mbox_loc_perm"
  top: "conv9_2_mbox_loc_flat"
  flatten_param {
    axis: 1
  }
}
layer {
  name: "conv9_2_mbox_conf"
  type: "Convolution"
  bottom: "conv9_2"
  top: "conv9_2_mbox_conf"
  param {
    lr_mult: 1
    decay_mult: 1
  }
  param {
    lr_mult: 2
    decay_mult: 0
  }
  convolution_param {
    num_output: 8
    pad: 1
    kernel_size: 3
    stride: 1
    weight_filler {
      type: "xavier"
    }
    bias_filler {
      type: "constant"
      value: 0
    }
  }
}
layer {
  name: "conv9_2_mbox_conf_perm"
  type: "Permute"
  bottom: "conv9_2_mbox_conf"
  top: "conv9_2_mbox_conf_perm"
  permute_param {
    order: 0
    order: 2
    order: 3
    order: 1
  }
}
layer {
  name: "conv9_2_mbox_conf_flat"
  type: "Flatten"
  bottom: "conv9_2_mbox_conf_perm"
  top: "conv9_2_mbox_conf_flat"
  flatten_param {
    axis: 1
  }
}
layer {
  name: "conv9_2_mbox_priorbox"
  type: "PriorBox"
  bottom: "conv9_2"
  bottom: "data"
  top: "conv9_2_mbox_priorbox"
  prior_box_param {
    min_size: 264
    max_size: 315
    aspect_ratio: 2
    flip: true
    clip: false
    variance: 0.1
    variance: 0.1
    variance: 0.2
    variance: 0.2
    step: 300
    offset: 0.5
  }
}
layer {
  name: "mbox_loc"
  type: "Concat"
  bottom: "conv4_3_norm_mbox_loc_flat"
  bottom: "fc7_mbox_loc_flat"
  bottom: "conv6_2_mbox_loc_flat"
  bottom: "conv7_2_mbox_loc_flat"
  bottom: "conv8_2_mbox_loc_flat"
  bottom: "conv9_2_mbox_loc_flat"
  top: "mbox_loc"
  concat_param {
    axis: 1
  }
}
layer {
  name: "mbox_conf"
  type: "Concat"
  bottom: "conv4_3_norm_mbox_conf_flat"
  bottom: "fc7_mbox_conf_flat"
  bottom: "conv6_2_mbox_conf_flat"
  bottom: "conv7_2_mbox_conf_flat"
  bottom: "conv8_2_mbox_conf_flat"
  bottom: "conv9_2_mbox_conf_flat"
  top: "mbox_conf"
  concat_param {
    axis: 1
  }
}
layer {
  name: "mbox_priorbox"
  type: "Concat"
  bottom: "conv4_3_norm_mbox_priorbox"
  bottom: "fc7_mbox_priorbox"
  bottom: "conv6_2_mbox_priorbox"
  bottom: "conv7_2_mbox_priorbox"
  bottom: "conv8_2_mbox_priorbox"
  bottom: "conv9_2_mbox_priorbox"
  top: "mbox_priorbox"
  concat_param {
    axis: 2
  }
}
layer {
  name: "mbox_loss"
  type: "MultiBoxLoss"
  bottom: "mbox_loc"
  bottom: "mbox_conf"
  bottom: "mbox_priorbox"
  bottom: "label"
  top: "mbox_loss"
  include {
    phase: TRAIN
  }
  propagate_down: true
  propagate_down: true
  propagate_down: false
  propagate_down: false
  loss_param {
    normalization: VALID
  }
  multibox_loss_param {
    loc_loss_type: SMOOTH_L1
    conf_loss_type: SOFTMAX
    loc_weight: 1
    num_classes: 2
    share_location: true
    match_type: PER_PREDICTION
    overlap_threshold: 0.5
    use_prior_for_matching: true
    background_label_id: 0
    use_difficult_gt: true
    neg_pos_ratio: 3
    neg_overlap: 0.5
    code_type: CENTER_SIZE
    ignore_cross_boundary_bbox: false
    mining_type: MAX_NEGATIVE
  }
}
I0308 15:00:48.217429 242848 layer_factory.hpp:77] Creating layer data
I0308 15:00:48.218713 242848 net.cpp:100] Creating Layer data
I0308 15:00:48.218794 242848 net.cpp:408] data -> data
I0308 15:00:48.218875 242848 net.cpp:408] data -> label
I0308 15:00:48.221438 242860 db_lmdb.cpp:35] Opened lmdb examples/chn/chn_trainval_lmdb
I0308 15:00:48.266840 242848 annotated_data_layer.cpp:62] output data size: 8,3,300,300
I0308 15:00:48.293439 242848 net.cpp:150] Setting up data
I0308 15:00:48.293516 242848 net.cpp:157] Top shape: 8 3 300 300 (2160000)
I0308 15:00:48.293534 242848 net.cpp:157] Top shape: 1 1 41 8 (328)
I0308 15:00:48.293581 242848 net.cpp:165] Memory required for data: 8641312
I0308 15:00:48.293623 242848 layer_factory.hpp:77] Creating layer data_data_0_split
I0308 15:00:48.293663 242848 net.cpp:100] Creating Layer data_data_0_split
I0308 15:00:48.293678 242848 net.cpp:434] data_data_0_split <- data
I0308 15:00:48.293723 242848 net.cpp:408] data_data_0_split -> data_data_0_split_0
I0308 15:00:48.293750 242848 net.cpp:408] data_data_0_split -> data_data_0_split_1
I0308 15:00:48.293764 242848 net.cpp:408] data_data_0_split -> data_data_0_split_2
I0308 15:00:48.293781 242848 net.cpp:408] data_data_0_split -> data_data_0_split_3
I0308 15:00:48.293793 242848 net.cpp:408] data_data_0_split -> data_data_0_split_4
I0308 15:00:48.293807 242848 net.cpp:408] data_data_0_split -> data_data_0_split_5
I0308 15:00:48.293819 242848 net.cpp:408] data_data_0_split -> data_data_0_split_6
I0308 15:00:48.294010 242848 net.cpp:150] Setting up data_data_0_split
I0308 15:00:48.294028 242848 net.cpp:157] Top shape: 8 3 300 300 (2160000)
I0308 15:00:48.294039 242848 net.cpp:157] Top shape: 8 3 300 300 (2160000)
I0308 15:00:48.294051 242848 net.cpp:157] Top shape: 8 3 300 300 (2160000)
I0308 15:00:48.294061 242848 net.cpp:157] Top shape: 8 3 300 300 (2160000)
I0308 15:00:48.294071 242848 net.cpp:157] Top shape: 8 3 300 300 (2160000)
I0308 15:00:48.294081 242848 net.cpp:157] Top shape: 8 3 300 300 (2160000)
I0308 15:00:48.294092 242848 net.cpp:157] Top shape: 8 3 300 300 (2160000)
I0308 15:00:48.294101 242848 net.cpp:165] Memory required for data: 69121312
I0308 15:00:48.294111 242848 layer_factory.hpp:77] Creating layer conv1_1
I0308 15:00:48.294145 242848 net.cpp:100] Creating Layer conv1_1
I0308 15:00:48.294157 242848 net.cpp:434] conv1_1 <- data_data_0_split_0
I0308 15:00:48.294172 242848 net.cpp:408] conv1_1 -> conv1_1
I0308 15:00:48.426141 242861 blocking_queue.cpp:50] Waiting for data
I0308 15:00:48.983311 242848 net.cpp:150] Setting up conv1_1
I0308 15:00:48.983366 242848 net.cpp:157] Top shape: 8 64 300 300 (46080000)
I0308 15:00:48.983376 242848 net.cpp:165] Memory required for data: 253441312
I0308 15:00:48.983412 242848 layer_factory.hpp:77] Creating layer relu1_1
I0308 15:00:48.983434 242848 net.cpp:100] Creating Layer relu1_1
I0308 15:00:48.983446 242848 net.cpp:434] relu1_1 <- conv1_1
I0308 15:00:48.983469 242848 net.cpp:395] relu1_1 -> conv1_1 (in-place)
I0308 15:00:48.983794 242848 net.cpp:150] Setting up relu1_1
I0308 15:00:48.983814 242848 net.cpp:157] Top shape: 8 64 300 300 (46080000)
I0308 15:00:48.983827 242848 net.cpp:165] Memory required for data: 437761312
I0308 15:00:48.983839 242848 layer_factory.hpp:77] Creating layer conv1_2
I0308 15:00:48.983866 242848 net.cpp:100] Creating Layer conv1_2
I0308 15:00:48.983877 242848 net.cpp:434] conv1_2 <- conv1_1
I0308 15:00:48.983891 242848 net.cpp:408] conv1_2 -> conv1_2
I0308 15:00:48.988483 242848 net.cpp:150] Setting up conv1_2
I0308 15:00:48.988509 242848 net.cpp:157] Top shape: 8 64 300 300 (46080000)
I0308 15:00:48.988528 242848 net.cpp:165] Memory required for data: 622081312
I0308 15:00:48.988557 242848 layer_factory.hpp:77] Creating layer relu1_2
I0308 15:00:48.988579 242848 net.cpp:100] Creating Layer relu1_2
I0308 15:00:48.988595 242848 net.cpp:434] relu1_2 <- conv1_2
I0308 15:00:48.988607 242848 net.cpp:395] relu1_2 -> conv1_2 (in-place)
I0308 15:00:48.988905 242848 net.cpp:150] Setting up relu1_2
I0308 15:00:48.988925 242848 net.cpp:157] Top shape: 8 64 300 300 (46080000)
I0308 15:00:48.988935 242848 net.cpp:165] Memory required for data: 806401312
I0308 15:00:48.988946 242848 layer_factory.hpp:77] Creating layer pool1
I0308 15:00:48.988971 242848 net.cpp:100] Creating Layer pool1
I0308 15:00:48.988989 242848 net.cpp:434] pool1 <- conv1_2
I0308 15:00:48.989002 242848 net.cpp:408] pool1 -> pool1
I0308 15:00:48.989089 242848 net.cpp:150] Setting up pool1
I0308 15:00:48.989105 242848 net.cpp:157] Top shape: 8 64 150 150 (11520000)
I0308 15:00:48.989114 242848 net.cpp:165] Memory required for data: 852481312
I0308 15:00:48.989122 242848 layer_factory.hpp:77] Creating layer conv2_1
I0308 15:00:48.989166 242848 net.cpp:100] Creating Layer conv2_1
I0308 15:00:48.989178 242848 net.cpp:434] conv2_1 <- pool1
I0308 15:00:48.989192 242848 net.cpp:408] conv2_1 -> conv2_1
I0308 15:00:48.992537 242848 net.cpp:150] Setting up conv2_1
I0308 15:00:48.992563 242848 net.cpp:157] Top shape: 8 128 150 150 (23040000)
I0308 15:00:48.992588 242848 net.cpp:165] Memory required for data: 944641312
I0308 15:00:48.992607 242848 layer_factory.hpp:77] Creating layer relu2_1
I0308 15:00:48.992624 242848 net.cpp:100] Creating Layer relu2_1
I0308 15:00:48.992635 242848 net.cpp:434] relu2_1 <- conv2_1
I0308 15:00:48.992645 242848 net.cpp:395] relu2_1 -> conv2_1 (in-place)
I0308 15:00:48.993471 242848 net.cpp:150] Setting up relu2_1
I0308 15:00:48.993495 242848 net.cpp:157] Top shape: 8 128 150 150 (23040000)
I0308 15:00:48.993505 242848 net.cpp:165] Memory required for data: 1036801312
I0308 15:00:48.993513 242848 layer_factory.hpp:77] Creating layer conv2_2
I0308 15:00:48.993532 242848 net.cpp:100] Creating Layer conv2_2
I0308 15:00:48.993542 242848 net.cpp:434] conv2_2 <- conv2_1
I0308 15:00:48.993556 242848 net.cpp:408] conv2_2 -> conv2_2
I0308 15:00:48.998464 242848 net.cpp:150] Setting up conv2_2
I0308 15:00:48.998489 242848 net.cpp:157] Top shape: 8 128 150 150 (23040000)
I0308 15:00:48.998498 242848 net.cpp:165] Memory required for data: 1128961312
I0308 15:00:48.998514 242848 layer_factory.hpp:77] Creating layer relu2_2
I0308 15:00:48.998544 242848 net.cpp:100] Creating Layer relu2_2
I0308 15:00:48.998570 242848 net.cpp:434] relu2_2 <- conv2_2
I0308 15:00:48.998584 242848 net.cpp:395] relu2_2 -> conv2_2 (in-place)
I0308 15:00:48.999409 242848 net.cpp:150] Setting up relu2_2
I0308 15:00:48.999433 242848 net.cpp:157] Top shape: 8 128 150 150 (23040000)
I0308 15:00:48.999457 242848 net.cpp:165] Memory required for data: 1221121312
I0308 15:00:48.999466 242848 layer_factory.hpp:77] Creating layer pool2
I0308 15:00:48.999482 242848 net.cpp:100] Creating Layer pool2
I0308 15:00:48.999507 242848 net.cpp:434] pool2 <- conv2_2
I0308 15:00:48.999519 242848 net.cpp:408] pool2 -> pool2
I0308 15:00:48.999600 242848 net.cpp:150] Setting up pool2
I0308 15:00:48.999615 242848 net.cpp:157] Top shape: 8 128 75 75 (5760000)
I0308 15:00:48.999624 242848 net.cpp:165] Memory required for data: 1244161312
I0308 15:00:48.999632 242848 layer_factory.hpp:77] Creating layer conv3_1
I0308 15:00:48.999651 242848 net.cpp:100] Creating Layer conv3_1
I0308 15:00:48.999661 242848 net.cpp:434] conv3_1 <- pool2
I0308 15:00:48.999676 242848 net.cpp:408] conv3_1 -> conv3_1
I0308 15:00:49.011744 242848 net.cpp:150] Setting up conv3_1
I0308 15:00:49.011770 242848 net.cpp:157] Top shape: 8 256 75 75 (11520000)
I0308 15:00:49.011780 242848 net.cpp:165] Memory required for data: 1290241312
I0308 15:00:49.011802 242848 layer_factory.hpp:77] Creating layer relu3_1
I0308 15:00:49.011826 242848 net.cpp:100] Creating Layer relu3_1
I0308 15:00:49.011850 242848 net.cpp:434] relu3_1 <- conv3_1
I0308 15:00:49.011864 242848 net.cpp:395] relu3_1 -> conv3_1 (in-place)
I0308 15:00:49.012214 242848 net.cpp:150] Setting up relu3_1
I0308 15:00:49.012234 242848 net.cpp:157] Top shape: 8 256 75 75 (11520000)
I0308 15:00:49.012243 242848 net.cpp:165] Memory required for data: 1336321312
I0308 15:00:49.012251 242848 layer_factory.hpp:77] Creating layer conv3_2
I0308 15:00:49.012274 242848 net.cpp:100] Creating Layer conv3_2
I0308 15:00:49.012290 242848 net.cpp:434] conv3_2 <- conv3_1
I0308 15:00:49.012305 242848 net.cpp:408] conv3_2 -> conv3_2
I0308 15:00:49.028970 242848 net.cpp:150] Setting up conv3_2
I0308 15:00:49.029000 242848 net.cpp:157] Top shape: 8 256 75 75 (11520000)
I0308 15:00:49.029009 242848 net.cpp:165] Memory required for data: 1382401312
I0308 15:00:49.029024 242848 layer_factory.hpp:77] Creating layer relu3_2
I0308 15:00:49.029054 242848 net.cpp:100] Creating Layer relu3_2
I0308 15:00:49.029083 242848 net.cpp:434] relu3_2 <- conv3_2
I0308 15:00:49.029094 242848 net.cpp:395] relu3_2 -> conv3_2 (in-place)
I0308 15:00:49.029430 242848 net.cpp:150] Setting up relu3_2
I0308 15:00:49.029469 242848 net.cpp:157] Top shape: 8 256 75 75 (11520000)
I0308 15:00:49.029495 242848 net.cpp:165] Memory required for data: 1428481312
I0308 15:00:49.029503 242848 layer_factory.hpp:77] Creating layer conv3_3
I0308 15:00:49.029527 242848 net.cpp:100] Creating Layer conv3_3
I0308 15:00:49.029544 242848 net.cpp:434] conv3_3 <- conv3_2
I0308 15:00:49.029561 242848 net.cpp:408] conv3_3 -> conv3_3
I0308 15:00:49.046213 242848 net.cpp:150] Setting up conv3_3
I0308 15:00:49.046239 242848 net.cpp:157] Top shape: 8 256 75 75 (11520000)
I0308 15:00:49.046248 242848 net.cpp:165] Memory required for data: 1474561312
I0308 15:00:49.046264 242848 layer_factory.hpp:77] Creating layer relu3_3
I0308 15:00:49.046295 242848 net.cpp:100] Creating Layer relu3_3
I0308 15:00:49.046322 242848 net.cpp:434] relu3_3 <- conv3_3
I0308 15:00:49.046336 242848 net.cpp:395] relu3_3 -> conv3_3 (in-place)
I0308 15:00:49.046685 242848 net.cpp:150] Setting up relu3_3
I0308 15:00:49.046705 242848 net.cpp:157] Top shape: 8 256 75 75 (11520000)
I0308 15:00:49.046732 242848 net.cpp:165] Memory required for data: 1520641312
I0308 15:00:49.046741 242848 layer_factory.hpp:77] Creating layer pool3
I0308 15:00:49.046757 242848 net.cpp:100] Creating Layer pool3
I0308 15:00:49.046782 242848 net.cpp:434] pool3 <- conv3_3
I0308 15:00:49.046794 242848 net.cpp:408] pool3 -> pool3
I0308 15:00:49.046875 242848 net.cpp:150] Setting up pool3
I0308 15:00:49.046890 242848 net.cpp:157] Top shape: 8 256 38 38 (2957312)
I0308 15:00:49.046897 242848 net.cpp:165] Memory required for data: 1532470560
I0308 15:00:49.046905 242848 layer_factory.hpp:77] Creating layer conv4_1
I0308 15:00:49.046924 242848 net.cpp:100] Creating Layer conv4_1
I0308 15:00:49.046936 242848 net.cpp:434] conv4_1 <- pool3
I0308 15:00:49.046952 242848 net.cpp:408] conv4_1 -> conv4_1
I0308 15:00:49.077165 242848 net.cpp:150] Setting up conv4_1
I0308 15:00:49.077199 242848 net.cpp:157] Top shape: 8 512 38 38 (5914624)
I0308 15:00:49.077208 242848 net.cpp:165] Memory required for data: 1556129056
I0308 15:00:49.077226 242848 layer_factory.hpp:77] Creating layer relu4_1
I0308 15:00:49.077256 242848 net.cpp:100] Creating Layer relu4_1
I0308 15:00:49.077281 242848 net.cpp:434] relu4_1 <- conv4_1
I0308 15:00:49.077296 242848 net.cpp:395] relu4_1 -> conv4_1 (in-place)
I0308 15:00:49.077643 242848 net.cpp:150] Setting up relu4_1
I0308 15:00:49.077662 242848 net.cpp:157] Top shape: 8 512 38 38 (5914624)
I0308 15:00:49.077690 242848 net.cpp:165] Memory required for data: 1579787552
I0308 15:00:49.077699 242848 layer_factory.hpp:77] Creating layer conv4_2
I0308 15:00:49.077720 242848 net.cpp:100] Creating Layer conv4_2
I0308 15:00:49.077741 242848 net.cpp:434] conv4_2 <- conv4_1
I0308 15:00:49.077755 242848 net.cpp:408] conv4_2 -> conv4_2
I0308 15:00:49.134717 242848 net.cpp:150] Setting up conv4_2
I0308 15:00:49.134757 242848 net.cpp:157] Top shape: 8 512 38 38 (5914624)
I0308 15:00:49.134768 242848 net.cpp:165] Memory required for data: 1603446048
I0308 15:00:49.134795 242848 layer_factory.hpp:77] Creating layer relu4_2
I0308 15:00:49.134827 242848 net.cpp:100] Creating Layer relu4_2
I0308 15:00:49.134850 242848 net.cpp:434] relu4_2 <- conv4_2
I0308 15:00:49.134867 242848 net.cpp:395] relu4_2 -> conv4_2 (in-place)
I0308 15:00:49.135754 242848 net.cpp:150] Setting up relu4_2
I0308 15:00:49.135778 242848 net.cpp:157] Top shape: 8 512 38 38 (5914624)
I0308 15:00:49.135800 242848 net.cpp:165] Memory required for data: 1627104544
I0308 15:00:49.135809 242848 layer_factory.hpp:77] Creating layer conv4_3
I0308 15:00:49.135833 242848 net.cpp:100] Creating Layer conv4_3
I0308 15:00:49.135848 242848 net.cpp:434] conv4_3 <- conv4_2
I0308 15:00:49.135865 242848 net.cpp:408] conv4_3 -> conv4_3
I0308 15:00:49.191882 242848 net.cpp:150] Setting up conv4_3
I0308 15:00:49.191910 242848 net.cpp:157] Top shape: 8 512 38 38 (5914624)
I0308 15:00:49.191920 242848 net.cpp:165] Memory required for data: 1650763040
I0308 15:00:49.191936 242848 layer_factory.hpp:77] Creating layer relu4_3
I0308 15:00:49.191956 242848 net.cpp:100] Creating Layer relu4_3
I0308 15:00:49.191990 242848 net.cpp:434] relu4_3 <- conv4_3
I0308 15:00:49.192006 242848 net.cpp:395] relu4_3 -> conv4_3 (in-place)
I0308 15:00:49.192910 242848 net.cpp:150] Setting up relu4_3
I0308 15:00:49.192934 242848 net.cpp:157] Top shape: 8 512 38 38 (5914624)
I0308 15:00:49.192966 242848 net.cpp:165] Memory required for data: 1674421536
I0308 15:00:49.192977 242848 layer_factory.hpp:77] Creating layer conv4_3_relu4_3_0_split
I0308 15:00:49.192993 242848 net.cpp:100] Creating Layer conv4_3_relu4_3_0_split
I0308 15:00:49.193002 242848 net.cpp:434] conv4_3_relu4_3_0_split <- conv4_3
I0308 15:00:49.193014 242848 net.cpp:408] conv4_3_relu4_3_0_split -> conv4_3_relu4_3_0_split_0
I0308 15:00:49.193029 242848 net.cpp:408] conv4_3_relu4_3_0_split -> conv4_3_relu4_3_0_split_1
I0308 15:00:49.193114 242848 net.cpp:150] Setting up conv4_3_relu4_3_0_split
I0308 15:00:49.193130 242848 net.cpp:157] Top shape: 8 512 38 38 (5914624)
I0308 15:00:49.193148 242848 net.cpp:157] Top shape: 8 512 38 38 (5914624)
I0308 15:00:49.193163 242848 net.cpp:165] Memory required for data: 1721738528
I0308 15:00:49.193182 242848 layer_factory.hpp:77] Creating layer pool4
I0308 15:00:49.193207 242848 net.cpp:100] Creating Layer pool4
I0308 15:00:49.193219 242848 net.cpp:434] pool4 <- conv4_3_relu4_3_0_split_0
I0308 15:00:49.193234 242848 net.cpp:408] pool4 -> pool4
I0308 15:00:49.193308 242848 net.cpp:150] Setting up pool4
I0308 15:00:49.193323 242848 net.cpp:157] Top shape: 8 512 19 19 (1478656)
I0308 15:00:49.193331 242848 net.cpp:165] Memory required for data: 1727653152
I0308 15:00:49.193341 242848 layer_factory.hpp:77] Creating layer conv5_1
I0308 15:00:49.193363 242848 net.cpp:100] Creating Layer conv5_1
I0308 15:00:49.193373 242848 net.cpp:434] conv5_1 <- pool4
I0308 15:00:49.193388 242848 net.cpp:408] conv5_1 -> conv5_1
I0308 15:00:49.250166 242848 net.cpp:150] Setting up conv5_1
I0308 15:00:49.250210 242848 net.cpp:157] Top shape: 8 512 19 19 (1478656)
I0308 15:00:49.250219 242848 net.cpp:165] Memory required for data: 1733567776
I0308 15:00:49.250252 242848 layer_factory.hpp:77] Creating layer relu5_1
I0308 15:00:49.250273 242848 net.cpp:100] Creating Layer relu5_1
I0308 15:00:49.250285 242848 net.cpp:434] relu5_1 <- conv5_1
I0308 15:00:49.250309 242848 net.cpp:395] relu5_1 -> conv5_1 (in-place)
I0308 15:00:49.250638 242848 net.cpp:150] Setting up relu5_1
I0308 15:00:49.250658 242848 net.cpp:157] Top shape: 8 512 19 19 (1478656)
I0308 15:00:49.250666 242848 net.cpp:165] Memory required for data: 1739482400
I0308 15:00:49.250676 242848 layer_factory.hpp:77] Creating layer conv5_2
I0308 15:00:49.250702 242848 net.cpp:100] Creating Layer conv5_2
I0308 15:00:49.250712 242848 net.cpp:434] conv5_2 <- conv5_1
I0308 15:00:49.250727 242848 net.cpp:408] conv5_2 -> conv5_2
I0308 15:00:49.307608 242848 net.cpp:150] Setting up conv5_2
I0308 15:00:49.307652 242848 net.cpp:157] Top shape: 8 512 19 19 (1478656)
I0308 15:00:49.307674 242848 net.cpp:165] Memory required for data: 1745397024
I0308 15:00:49.307703 242848 layer_factory.hpp:77] Creating layer relu5_2
I0308 15:00:49.307724 242848 net.cpp:100] Creating Layer relu5_2
I0308 15:00:49.307736 242848 net.cpp:434] relu5_2 <- conv5_2
I0308 15:00:49.307760 242848 net.cpp:395] relu5_2 -> conv5_2 (in-place)
I0308 15:00:49.308094 242848 net.cpp:150] Setting up relu5_2
I0308 15:00:49.308114 242848 net.cpp:157] Top shape: 8 512 19 19 (1478656)
I0308 15:00:49.308122 242848 net.cpp:165] Memory required for data: 1751311648
I0308 15:00:49.308133 242848 layer_factory.hpp:77] Creating layer conv5_3
I0308 15:00:49.308157 242848 net.cpp:100] Creating Layer conv5_3
I0308 15:00:49.308168 242848 net.cpp:434] conv5_3 <- conv5_2
I0308 15:00:49.308187 242848 net.cpp:408] conv5_3 -> conv5_3
I0308 15:00:49.364956 242848 net.cpp:150] Setting up conv5_3
I0308 15:00:49.365005 242848 net.cpp:157] Top shape: 8 512 19 19 (1478656)
I0308 15:00:49.365028 242848 net.cpp:165] Memory required for data: 1757226272
I0308 15:00:49.365054 242848 layer_factory.hpp:77] Creating layer relu5_3
I0308 15:00:49.365108 242848 net.cpp:100] Creating Layer relu5_3
I0308 15:00:49.365121 242848 net.cpp:434] relu5_3 <- conv5_3
I0308 15:00:49.365141 242848 net.cpp:395] relu5_3 -> conv5_3 (in-place)
I0308 15:00:49.365476 242848 net.cpp:150] Setting up relu5_3
I0308 15:00:49.365496 242848 net.cpp:157] Top shape: 8 512 19 19 (1478656)
I0308 15:00:49.365505 242848 net.cpp:165] Memory required for data: 1763140896
I0308 15:00:49.365515 242848 layer_factory.hpp:77] Creating layer pool5
I0308 15:00:49.365535 242848 net.cpp:100] Creating Layer pool5
I0308 15:00:49.365543 242848 net.cpp:434] pool5 <- conv5_3
I0308 15:00:49.365556 242848 net.cpp:408] pool5 -> pool5
I0308 15:00:49.365643 242848 net.cpp:150] Setting up pool5
I0308 15:00:49.365658 242848 net.cpp:157] Top shape: 8 512 19 19 (1478656)
I0308 15:00:49.365666 242848 net.cpp:165] Memory required for data: 1769055520
I0308 15:00:49.365675 242848 layer_factory.hpp:77] Creating layer fc6
I0308 15:00:49.365698 242848 net.cpp:100] Creating Layer fc6
I0308 15:00:49.365708 242848 net.cpp:434] fc6 <- pool5
I0308 15:00:49.365725 242848 net.cpp:408] fc6 -> fc6
I0308 15:00:49.475163 242848 net.cpp:150] Setting up fc6
I0308 15:00:49.475215 242848 net.cpp:157] Top shape: 8 1024 19 19 (2957312)
I0308 15:00:49.475225 242848 net.cpp:165] Memory required for data: 1780884768
I0308 15:00:49.475245 242848 layer_factory.hpp:77] Creating layer relu6
I0308 15:00:49.475270 242848 net.cpp:100] Creating Layer relu6
I0308 15:00:49.475282 242848 net.cpp:434] relu6 <- fc6
I0308 15:00:49.475306 242848 net.cpp:395] relu6 -> fc6 (in-place)
I0308 15:00:49.477766 242848 net.cpp:150] Setting up relu6
I0308 15:00:49.477790 242848 net.cpp:157] Top shape: 8 1024 19 19 (2957312)
I0308 15:00:49.477807 242848 net.cpp:165] Memory required for data: 1792714016
I0308 15:00:49.477826 242848 layer_factory.hpp:77] Creating layer fc7
I0308 15:00:49.477861 242848 net.cpp:100] Creating Layer fc7
I0308 15:00:49.477872 242848 net.cpp:434] fc7 <- fc6
I0308 15:00:49.477890 242848 net.cpp:408] fc7 -> fc7
I0308 15:00:49.505568 242848 net.cpp:150] Setting up fc7
I0308 15:00:49.505594 242848 net.cpp:157] Top shape: 8 1024 19 19 (2957312)
I0308 15:00:49.505614 242848 net.cpp:165] Memory required for data: 1804543264
I0308 15:00:49.505640 242848 layer_factory.hpp:77] Creating layer relu7
I0308 15:00:49.505657 242848 net.cpp:100] Creating Layer relu7
I0308 15:00:49.505669 242848 net.cpp:434] relu7 <- fc7
I0308 15:00:49.505693 242848 net.cpp:395] relu7 -> fc7 (in-place)
I0308 15:00:49.506639 242848 net.cpp:150] Setting up relu7
I0308 15:00:49.506664 242848 net.cpp:157] Top shape: 8 1024 19 19 (2957312)
I0308 15:00:49.506677 242848 net.cpp:165] Memory required for data: 1816372512
I0308 15:00:49.506687 242848 layer_factory.hpp:77] Creating layer fc7_relu7_0_split
I0308 15:00:49.506706 242848 net.cpp:100] Creating Layer fc7_relu7_0_split
I0308 15:00:49.506716 242848 net.cpp:434] fc7_relu7_0_split <- fc7
I0308 15:00:49.506729 242848 net.cpp:408] fc7_relu7_0_split -> fc7_relu7_0_split_0
I0308 15:00:49.506745 242848 net.cpp:408] fc7_relu7_0_split -> fc7_relu7_0_split_1
I0308 15:00:49.506768 242848 net.cpp:408] fc7_relu7_0_split -> fc7_relu7_0_split_2
I0308 15:00:49.506783 242848 net.cpp:408] fc7_relu7_0_split -> fc7_relu7_0_split_3
I0308 15:00:49.506917 242848 net.cpp:150] Setting up fc7_relu7_0_split
I0308 15:00:49.506932 242848 net.cpp:157] Top shape: 8 1024 19 19 (2957312)
I0308 15:00:49.506947 242848 net.cpp:157] Top shape: 8 1024 19 19 (2957312)
I0308 15:00:49.506959 242848 net.cpp:157] Top shape: 8 1024 19 19 (2957312)
I0308 15:00:49.506970 242848 net.cpp:157] Top shape: 8 1024 19 19 (2957312)
I0308 15:00:49.506979 242848 net.cpp:165] Memory required for data: 1863689504
I0308 15:00:49.506989 242848 layer_factory.hpp:77] Creating layer conv6_1
I0308 15:00:49.507009 242848 net.cpp:100] Creating Layer conv6_1
I0308 15:00:49.507020 242848 net.cpp:434] conv6_1 <- fc7_relu7_0_split_0
I0308 15:00:49.507035 242848 net.cpp:408] conv6_1 -> conv6_1
I0308 15:00:49.516455 242848 net.cpp:150] Setting up conv6_1
I0308 15:00:49.516481 242848 net.cpp:157] Top shape: 8 256 19 19 (739328)
I0308 15:00:49.516518 242848 net.cpp:165] Memory required for data: 1866646816
I0308 15:00:49.516543 242848 layer_factory.hpp:77] Creating layer conv6_1_relu
I0308 15:00:49.516559 242848 net.cpp:100] Creating Layer conv6_1_relu
I0308 15:00:49.516574 242848 net.cpp:434] conv6_1_relu <- conv6_1
I0308 15:00:49.516597 242848 net.cpp:395] conv6_1_relu -> conv6_1 (in-place)
I0308 15:00:49.516924 242848 net.cpp:150] Setting up conv6_1_relu
I0308 15:00:49.516947 242848 net.cpp:157] Top shape: 8 256 19 19 (739328)
I0308 15:00:49.516955 242848 net.cpp:165] Memory required for data: 1869604128
I0308 15:00:49.516973 242848 layer_factory.hpp:77] Creating layer conv6_2
I0308 15:00:49.516997 242848 net.cpp:100] Creating Layer conv6_2
I0308 15:00:49.517007 242848 net.cpp:434] conv6_2 <- conv6_1
I0308 15:00:49.517024 242848 net.cpp:408] conv6_2 -> conv6_2
I0308 15:00:49.546834 242848 net.cpp:150] Setting up conv6_2
I0308 15:00:49.546865 242848 net.cpp:157] Top shape: 8 512 10 10 (409600)
I0308 15:00:49.546875 242848 net.cpp:165] Memory required for data: 1871242528
I0308 15:00:49.546916 242848 layer_factory.hpp:77] Creating layer conv6_2_relu
I0308 15:00:49.546931 242848 net.cpp:100] Creating Layer conv6_2_relu
I0308 15:00:49.546944 242848 net.cpp:434] conv6_2_relu <- conv6_2
I0308 15:00:49.546965 242848 net.cpp:395] conv6_2_relu -> conv6_2 (in-place)
I0308 15:00:49.547298 242848 net.cpp:150] Setting up conv6_2_relu
I0308 15:00:49.547319 242848 net.cpp:157] Top shape: 8 512 10 10 (409600)
I0308 15:00:49.547328 242848 net.cpp:165] Memory required for data: 1872880928
I0308 15:00:49.547338 242848 layer_factory.hpp:77] Creating layer conv6_2_conv6_2_relu_0_split
I0308 15:00:49.547353 242848 net.cpp:100] Creating Layer conv6_2_conv6_2_relu_0_split
I0308 15:00:49.547363 242848 net.cpp:434] conv6_2_conv6_2_relu_0_split <- conv6_2
I0308 15:00:49.547379 242848 net.cpp:408] conv6_2_conv6_2_relu_0_split -> conv6_2_conv6_2_relu_0_split_0
I0308 15:00:49.547395 242848 net.cpp:408] conv6_2_conv6_2_relu_0_split -> conv6_2_conv6_2_relu_0_split_1
I0308 15:00:49.547410 242848 net.cpp:408] conv6_2_conv6_2_relu_0_split -> conv6_2_conv6_2_relu_0_split_2
I0308 15:00:49.547422 242848 net.cpp:408] conv6_2_conv6_2_relu_0_split -> conv6_2_conv6_2_relu_0_split_3
I0308 15:00:49.547557 242848 net.cpp:150] Setting up conv6_2_conv6_2_relu_0_split
I0308 15:00:49.547574 242848 net.cpp:157] Top shape: 8 512 10 10 (409600)
I0308 15:00:49.547586 242848 net.cpp:157] Top shape: 8 512 10 10 (409600)
I0308 15:00:49.547597 242848 net.cpp:157] Top shape: 8 512 10 10 (409600)
I0308 15:00:49.547608 242848 net.cpp:157] Top shape: 8 512 10 10 (409600)
I0308 15:00:49.547616 242848 net.cpp:165] Memory required for data: 1879434528
I0308 15:00:49.547626 242848 layer_factory.hpp:77] Creating layer conv7_1
I0308 15:00:49.547646 242848 net.cpp:100] Creating Layer conv7_1
I0308 15:00:49.547657 242848 net.cpp:434] conv7_1 <- conv6_2_conv6_2_relu_0_split_0
I0308 15:00:49.547672 242848 net.cpp:408] conv7_1 -> conv7_1
I0308 15:00:49.551141 242848 net.cpp:150] Setting up conv7_1
I0308 15:00:49.551167 242848 net.cpp:157] Top shape: 8 128 10 10 (102400)
I0308 15:00:49.551177 242848 net.cpp:165] Memory required for data: 1879844128
I0308 15:00:49.551192 242848 layer_factory.hpp:77] Creating layer conv7_1_relu
I0308 15:00:49.551206 242848 net.cpp:100] Creating Layer conv7_1_relu
I0308 15:00:49.551216 242848 net.cpp:434] conv7_1_relu <- conv7_1
I0308 15:00:49.551232 242848 net.cpp:395] conv7_1_relu -> conv7_1 (in-place)
I0308 15:00:49.551550 242848 net.cpp:150] Setting up conv7_1_relu
I0308 15:00:49.551569 242848 net.cpp:157] Top shape: 8 128 10 10 (102400)
I0308 15:00:49.551578 242848 net.cpp:165] Memory required for data: 1880253728
I0308 15:00:49.551589 242848 layer_factory.hpp:77] Creating layer conv7_2
I0308 15:00:49.551614 242848 net.cpp:100] Creating Layer conv7_2
I0308 15:00:49.551625 242848 net.cpp:434] conv7_2 <- conv7_1
I0308 15:00:49.551640 242848 net.cpp:408] conv7_2 -> conv7_2
I0308 15:00:49.561676 242848 net.cpp:150] Setting up conv7_2
I0308 15:00:49.561723 242848 net.cpp:157] Top shape: 8 256 5 5 (51200)
I0308 15:00:49.561740 242848 net.cpp:165] Memory required for data: 1880458528
I0308 15:00:49.561764 242848 layer_factory.hpp:77] Creating layer conv7_2_relu
I0308 15:00:49.561779 242848 net.cpp:100] Creating Layer conv7_2_relu
I0308 15:00:49.561794 242848 net.cpp:434] conv7_2_relu <- conv7_2
I0308 15:00:49.561815 242848 net.cpp:395] conv7_2_relu -> conv7_2 (in-place)
I0308 15:00:49.562140 242848 net.cpp:150] Setting up conv7_2_relu
I0308 15:00:49.562160 242848 net.cpp:157] Top shape: 8 256 5 5 (51200)
I0308 15:00:49.562170 242848 net.cpp:165] Memory required for data: 1880663328
I0308 15:00:49.562180 242848 layer_factory.hpp:77] Creating layer conv7_2_conv7_2_relu_0_split
I0308 15:00:49.562196 242848 net.cpp:100] Creating Layer conv7_2_conv7_2_relu_0_split
I0308 15:00:49.562206 242848 net.cpp:434] conv7_2_conv7_2_relu_0_split <- conv7_2
I0308 15:00:49.562218 242848 net.cpp:408] conv7_2_conv7_2_relu_0_split -> conv7_2_conv7_2_relu_0_split_0
I0308 15:00:49.562233 242848 net.cpp:408] conv7_2_conv7_2_relu_0_split -> conv7_2_conv7_2_relu_0_split_1
I0308 15:00:49.562250 242848 net.cpp:408] conv7_2_conv7_2_relu_0_split -> conv7_2_conv7_2_relu_0_split_2
I0308 15:00:49.562264 242848 net.cpp:408] conv7_2_conv7_2_relu_0_split -> conv7_2_conv7_2_relu_0_split_3
I0308 15:00:49.562397 242848 net.cpp:150] Setting up conv7_2_conv7_2_relu_0_split
I0308 15:00:49.562412 242848 net.cpp:157] Top shape: 8 256 5 5 (51200)
I0308 15:00:49.562423 242848 net.cpp:157] Top shape: 8 256 5 5 (51200)
I0308 15:00:49.562433 242848 net.cpp:157] Top shape: 8 256 5 5 (51200)
I0308 15:00:49.562444 242848 net.cpp:157] Top shape: 8 256 5 5 (51200)
I0308 15:00:49.562453 242848 net.cpp:165] Memory required for data: 1881482528
I0308 15:00:49.562461 242848 layer_factory.hpp:77] Creating layer conv8_1
I0308 15:00:49.562481 242848 net.cpp:100] Creating Layer conv8_1
I0308 15:00:49.562492 242848 net.cpp:434] conv8_1 <- conv7_2_conv7_2_relu_0_split_0
I0308 15:00:49.562510 242848 net.cpp:408] conv8_1 -> conv8_1
I0308 15:00:49.565258 242848 net.cpp:150] Setting up conv8_1
I0308 15:00:49.565282 242848 net.cpp:157] Top shape: 8 128 5 5 (25600)
I0308 15:00:49.565292 242848 net.cpp:165] Memory required for data: 1881584928
I0308 15:00:49.565309 242848 layer_factory.hpp:77] Creating layer conv8_1_relu
I0308 15:00:49.565322 242848 net.cpp:100] Creating Layer conv8_1_relu
I0308 15:00:49.565332 242848 net.cpp:434] conv8_1_relu <- conv8_1
I0308 15:00:49.565349 242848 net.cpp:395] conv8_1_relu -> conv8_1 (in-place)
I0308 15:00:49.566279 242848 net.cpp:150] Setting up conv8_1_relu
I0308 15:00:49.566303 242848 net.cpp:157] Top shape: 8 128 5 5 (25600)
I0308 15:00:49.566313 242848 net.cpp:165] Memory required for data: 1881687328
I0308 15:00:49.566323 242848 layer_factory.hpp:77] Creating layer conv8_2
I0308 15:00:49.566347 242848 net.cpp:100] Creating Layer conv8_2
I0308 15:00:49.566359 242848 net.cpp:434] conv8_2 <- conv8_1
I0308 15:00:49.566375 242848 net.cpp:408] conv8_2 -> conv8_2
I0308 15:00:49.575819 242848 net.cpp:150] Setting up conv8_2
I0308 15:00:49.575845 242848 net.cpp:157] Top shape: 8 256 3 3 (18432)
I0308 15:00:49.575860 242848 net.cpp:165] Memory required for data: 1881761056
I0308 15:00:49.575886 242848 layer_factory.hpp:77] Creating layer conv8_2_relu
I0308 15:00:49.575901 242848 net.cpp:100] Creating Layer conv8_2_relu
I0308 15:00:49.575917 242848 net.cpp:434] conv8_2_relu <- conv8_2
I0308 15:00:49.575939 242848 net.cpp:395] conv8_2_relu -> conv8_2 (in-place)
I0308 15:00:49.576884 242848 net.cpp:150] Setting up conv8_2_relu
I0308 15:00:49.576908 242848 net.cpp:157] Top shape: 8 256 3 3 (18432)
I0308 15:00:49.576920 242848 net.cpp:165] Memory required for data: 1881834784
I0308 15:00:49.576931 242848 layer_factory.hpp:77] Creating layer conv8_2_conv8_2_relu_0_split
I0308 15:00:49.576946 242848 net.cpp:100] Creating Layer conv8_2_conv8_2_relu_0_split
I0308 15:00:49.576956 242848 net.cpp:434] conv8_2_conv8_2_relu_0_split <- conv8_2
I0308 15:00:49.576984 242848 net.cpp:408] conv8_2_conv8_2_relu_0_split -> conv8_2_conv8_2_relu_0_split_0
I0308 15:00:49.577019 242848 net.cpp:408] conv8_2_conv8_2_relu_0_split -> conv8_2_conv8_2_relu_0_split_1
I0308 15:00:49.577035 242848 net.cpp:408] conv8_2_conv8_2_relu_0_split -> conv8_2_conv8_2_relu_0_split_2
I0308 15:00:49.577052 242848 net.cpp:408] conv8_2_conv8_2_relu_0_split -> conv8_2_conv8_2_relu_0_split_3
I0308 15:00:49.577191 242848 net.cpp:150] Setting up conv8_2_conv8_2_relu_0_split
I0308 15:00:49.577208 242848 net.cpp:157] Top shape: 8 256 3 3 (18432)
I0308 15:00:49.577219 242848 net.cpp:157] Top shape: 8 256 3 3 (18432)
I0308 15:00:49.577230 242848 net.cpp:157] Top shape: 8 256 3 3 (18432)
I0308 15:00:49.577240 242848 net.cpp:157] Top shape: 8 256 3 3 (18432)
I0308 15:00:49.577250 242848 net.cpp:165] Memory required for data: 1882129696
I0308 15:00:49.577258 242848 layer_factory.hpp:77] Creating layer conv9_1
I0308 15:00:49.577278 242848 net.cpp:100] Creating Layer conv9_1
I0308 15:00:49.577289 242848 net.cpp:434] conv9_1 <- conv8_2_conv8_2_relu_0_split_0
I0308 15:00:49.577308 242848 net.cpp:408] conv9_1 -> conv9_1
I0308 15:00:49.580070 242848 net.cpp:150] Setting up conv9_1
I0308 15:00:49.580094 242848 net.cpp:157] Top shape: 8 128 3 3 (9216)
I0308 15:00:49.580104 242848 net.cpp:165] Memory required for data: 1882166560
I0308 15:00:49.580121 242848 layer_factory.hpp:77] Creating layer conv9_1_relu
I0308 15:00:49.580134 242848 net.cpp:100] Creating Layer conv9_1_relu
I0308 15:00:49.580144 242848 net.cpp:434] conv9_1_relu <- conv9_1
I0308 15:00:49.580159 242848 net.cpp:395] conv9_1_relu -> conv9_1 (in-place)
I0308 15:00:49.580487 242848 net.cpp:150] Setting up conv9_1_relu
I0308 15:00:49.580507 242848 net.cpp:157] Top shape: 8 128 3 3 (9216)
I0308 15:00:49.580515 242848 net.cpp:165] Memory required for data: 1882203424
I0308 15:00:49.580525 242848 layer_factory.hpp:77] Creating layer conv9_2
I0308 15:00:49.580546 242848 net.cpp:100] Creating Layer conv9_2
I0308 15:00:49.580557 242848 net.cpp:434] conv9_2 <- conv9_1
I0308 15:00:49.580574 242848 net.cpp:408] conv9_2 -> conv9_2
I0308 15:00:49.590687 242848 net.cpp:150] Setting up conv9_2
I0308 15:00:49.590714 242848 net.cpp:157] Top shape: 8 256 1 1 (2048)
I0308 15:00:49.590733 242848 net.cpp:165] Memory required for data: 1882211616
I0308 15:00:49.590756 242848 layer_factory.hpp:77] Creating layer conv9_2_relu
I0308 15:00:49.590772 242848 net.cpp:100] Creating Layer conv9_2_relu
I0308 15:00:49.590788 242848 net.cpp:434] conv9_2_relu <- conv9_2
I0308 15:00:49.590809 242848 net.cpp:395] conv9_2_relu -> conv9_2 (in-place)
I0308 15:00:49.591141 242848 net.cpp:150] Setting up conv9_2_relu
I0308 15:00:49.591161 242848 net.cpp:157] Top shape: 8 256 1 1 (2048)
I0308 15:00:49.591169 242848 net.cpp:165] Memory required for data: 1882219808
I0308 15:00:49.591181 242848 layer_factory.hpp:77] Creating layer conv9_2_conv9_2_relu_0_split
I0308 15:00:49.591194 242848 net.cpp:100] Creating Layer conv9_2_conv9_2_relu_0_split
I0308 15:00:49.591204 242848 net.cpp:434] conv9_2_conv9_2_relu_0_split <- conv9_2
I0308 15:00:49.591219 242848 net.cpp:408] conv9_2_conv9_2_relu_0_split -> conv9_2_conv9_2_relu_0_split_0
I0308 15:00:49.591235 242848 net.cpp:408] conv9_2_conv9_2_relu_0_split -> conv9_2_conv9_2_relu_0_split_1
I0308 15:00:49.591249 242848 net.cpp:408] conv9_2_conv9_2_relu_0_split -> conv9_2_conv9_2_relu_0_split_2
I0308 15:00:49.591359 242848 net.cpp:150] Setting up conv9_2_conv9_2_relu_0_split
I0308 15:00:49.591374 242848 net.cpp:157] Top shape: 8 256 1 1 (2048)
I0308 15:00:49.591387 242848 net.cpp:157] Top shape: 8 256 1 1 (2048)
I0308 15:00:49.591398 242848 net.cpp:157] Top shape: 8 256 1 1 (2048)
I0308 15:00:49.591405 242848 net.cpp:165] Memory required for data: 1882244384
I0308 15:00:49.591413 242848 layer_factory.hpp:77] Creating layer conv4_3_norm
I0308 15:00:49.591433 242848 net.cpp:100] Creating Layer conv4_3_norm
I0308 15:00:49.591442 242848 net.cpp:434] conv4_3_norm <- conv4_3_relu4_3_0_split_1
I0308 15:00:49.591457 242848 net.cpp:408] conv4_3_norm -> conv4_3_norm
I0308 15:00:49.591791 242848 net.cpp:150] Setting up conv4_3_norm
I0308 15:00:49.591826 242848 net.cpp:157] Top shape: 8 512 38 38 (5914624)
I0308 15:00:49.591836 242848 net.cpp:165] Memory required for data: 1905902880
I0308 15:00:49.591850 242848 layer_factory.hpp:77] Creating layer conv4_3_norm_conv4_3_norm_0_split
I0308 15:00:49.591864 242848 net.cpp:100] Creating Layer conv4_3_norm_conv4_3_norm_0_split
I0308 15:00:49.591873 242848 net.cpp:434] conv4_3_norm_conv4_3_norm_0_split <- conv4_3_norm
I0308 15:00:49.591886 242848 net.cpp:408] conv4_3_norm_conv4_3_norm_0_split -> conv4_3_norm_conv4_3_norm_0_split_0
I0308 15:00:49.591900 242848 net.cpp:408] conv4_3_norm_conv4_3_norm_0_split -> conv4_3_norm_conv4_3_norm_0_split_1
I0308 15:00:49.591914 242848 net.cpp:408] conv4_3_norm_conv4_3_norm_0_split -> conv4_3_norm_conv4_3_norm_0_split_2
I0308 15:00:49.592015 242848 net.cpp:150] Setting up conv4_3_norm_conv4_3_norm_0_split
I0308 15:00:49.592028 242848 net.cpp:157] Top shape: 8 512 38 38 (5914624)
I0308 15:00:49.592041 242848 net.cpp:157] Top shape: 8 512 38 38 (5914624)
I0308 15:00:49.592051 242848 net.cpp:157] Top shape: 8 512 38 38 (5914624)
I0308 15:00:49.592059 242848 net.cpp:165] Memory required for data: 1976878368
I0308 15:00:49.592068 242848 layer_factory.hpp:77] Creating layer conv4_3_norm_mbox_loc
I0308 15:00:49.592088 242848 net.cpp:100] Creating Layer conv4_3_norm_mbox_loc
I0308 15:00:49.592099 242848 net.cpp:434] conv4_3_norm_mbox_loc <- conv4_3_norm_conv4_3_norm_0_split_0
I0308 15:00:49.592114 242848 net.cpp:408] conv4_3_norm_mbox_loc -> conv4_3_norm_mbox_loc
I0308 15:00:49.596411 242848 net.cpp:150] Setting up conv4_3_norm_mbox_loc
I0308 15:00:49.596436 242848 net.cpp:157] Top shape: 8 16 38 38 (184832)
I0308 15:00:49.596453 242848 net.cpp:165] Memory required for data: 1977617696
I0308 15:00:49.596473 242848 layer_factory.hpp:77] Creating layer conv4_3_norm_mbox_loc_perm
I0308 15:00:49.596490 242848 net.cpp:100] Creating Layer conv4_3_norm_mbox_loc_perm
I0308 15:00:49.596501 242848 net.cpp:434] conv4_3_norm_mbox_loc_perm <- conv4_3_norm_mbox_loc
I0308 15:00:49.596514 242848 net.cpp:408] conv4_3_norm_mbox_loc_perm -> conv4_3_norm_mbox_loc_perm
I0308 15:00:49.596743 242848 net.cpp:150] Setting up conv4_3_norm_mbox_loc_perm
I0308 15:00:49.596760 242848 net.cpp:157] Top shape: 8 38 38 16 (184832)
I0308 15:00:49.596768 242848 net.cpp:165] Memory required for data: 1978357024
I0308 15:00:49.596779 242848 layer_factory.hpp:77] Creating layer conv4_3_norm_mbox_loc_flat
I0308 15:00:49.596794 242848 net.cpp:100] Creating Layer conv4_3_norm_mbox_loc_flat
I0308 15:00:49.596804 242848 net.cpp:434] conv4_3_norm_mbox_loc_flat <- conv4_3_norm_mbox_loc_perm
I0308 15:00:49.596818 242848 net.cpp:408] conv4_3_norm_mbox_loc_flat -> conv4_3_norm_mbox_loc_flat
I0308 15:00:49.596882 242848 net.cpp:150] Setting up conv4_3_norm_mbox_loc_flat
I0308 15:00:49.596899 242848 net.cpp:157] Top shape: 8 23104 (184832)
I0308 15:00:49.596907 242848 net.cpp:165] Memory required for data: 1979096352
I0308 15:00:49.596915 242848 layer_factory.hpp:77] Creating layer conv4_3_norm_mbox_conf
I0308 15:00:49.596947 242848 net.cpp:100] Creating Layer conv4_3_norm_mbox_conf
I0308 15:00:49.596957 242848 net.cpp:434] conv4_3_norm_mbox_conf <- conv4_3_norm_conv4_3_norm_0_split_1
I0308 15:00:49.596984 242848 net.cpp:408] conv4_3_norm_mbox_conf -> conv4_3_norm_mbox_conf
I0308 15:00:49.600555 242848 net.cpp:150] Setting up conv4_3_norm_mbox_conf
I0308 15:00:49.600580 242848 net.cpp:157] Top shape: 8 8 38 38 (92416)
I0308 15:00:49.600594 242848 net.cpp:165] Memory required for data: 1979466016
I0308 15:00:49.600611 242848 layer_factory.hpp:77] Creating layer conv4_3_norm_mbox_conf_perm
I0308 15:00:49.600628 242848 net.cpp:100] Creating Layer conv4_3_norm_mbox_conf_perm
I0308 15:00:49.600639 242848 net.cpp:434] conv4_3_norm_mbox_conf_perm <- conv4_3_norm_mbox_conf
I0308 15:00:49.600653 242848 net.cpp:408] conv4_3_norm_mbox_conf_perm -> conv4_3_norm_mbox_conf_perm
I0308 15:00:49.600879 242848 net.cpp:150] Setting up conv4_3_norm_mbox_conf_perm
I0308 15:00:49.600895 242848 net.cpp:157] Top shape: 8 38 38 8 (92416)
I0308 15:00:49.600904 242848 net.cpp:165] Memory required for data: 1979835680
I0308 15:00:49.600931 242848 layer_factory.hpp:77] Creating layer conv4_3_norm_mbox_conf_flat
I0308 15:00:49.600949 242848 net.cpp:100] Creating Layer conv4_3_norm_mbox_conf_flat
I0308 15:00:49.600958 242848 net.cpp:434] conv4_3_norm_mbox_conf_flat <- conv4_3_norm_mbox_conf_perm
I0308 15:00:49.600985 242848 net.cpp:408] conv4_3_norm_mbox_conf_flat -> conv4_3_norm_mbox_conf_flat
I0308 15:00:49.601038 242848 net.cpp:150] Setting up conv4_3_norm_mbox_conf_flat
I0308 15:00:49.601053 242848 net.cpp:157] Top shape: 8 11552 (92416)
I0308 15:00:49.601063 242848 net.cpp:165] Memory required for data: 1980205344
I0308 15:00:49.601071 242848 layer_factory.hpp:77] Creating layer conv4_3_norm_mbox_priorbox
I0308 15:00:49.601088 242848 net.cpp:100] Creating Layer conv4_3_norm_mbox_priorbox
I0308 15:00:49.601097 242848 net.cpp:434] conv4_3_norm_mbox_priorbox <- conv4_3_norm_conv4_3_norm_0_split_2
I0308 15:00:49.601109 242848 net.cpp:434] conv4_3_norm_mbox_priorbox <- data_data_0_split_1
I0308 15:00:49.601125 242848 net.cpp:408] conv4_3_norm_mbox_priorbox -> conv4_3_norm_mbox_priorbox
I0308 15:00:49.601181 242848 net.cpp:150] Setting up conv4_3_norm_mbox_priorbox
I0308 15:00:49.601196 242848 net.cpp:157] Top shape: 1 2 23104 (46208)
I0308 15:00:49.601204 242848 net.cpp:165] Memory required for data: 1980390176
I0308 15:00:49.601213 242848 layer_factory.hpp:77] Creating layer fc7_mbox_loc
I0308 15:00:49.601236 242848 net.cpp:100] Creating Layer fc7_mbox_loc
I0308 15:00:49.601246 242848 net.cpp:434] fc7_mbox_loc <- fc7_relu7_0_split_1
I0308 15:00:49.601261 242848 net.cpp:408] fc7_mbox_loc -> fc7_mbox_loc
I0308 15:00:49.608609 242848 net.cpp:150] Setting up fc7_mbox_loc
I0308 15:00:49.608639 242848 net.cpp:157] Top shape: 8 24 19 19 (69312)
I0308 15:00:49.608651 242848 net.cpp:165] Memory required for data: 1980667424
I0308 15:00:49.608676 242848 layer_factory.hpp:77] Creating layer fc7_mbox_loc_perm
I0308 15:00:49.608693 242848 net.cpp:100] Creating Layer fc7_mbox_loc_perm
I0308 15:00:49.608707 242848 net.cpp:434] fc7_mbox_loc_perm <- fc7_mbox_loc
I0308 15:00:49.608731 242848 net.cpp:408] fc7_mbox_loc_perm -> fc7_mbox_loc_perm
I0308 15:00:49.608958 242848 net.cpp:150] Setting up fc7_mbox_loc_perm
I0308 15:00:49.608986 242848 net.cpp:157] Top shape: 8 19 19 24 (69312)
I0308 15:00:49.608995 242848 net.cpp:165] Memory required for data: 1980944672
I0308 15:00:49.609005 242848 layer_factory.hpp:77] Creating layer fc7_mbox_loc_flat
I0308 15:00:49.609019 242848 net.cpp:100] Creating Layer fc7_mbox_loc_flat
I0308 15:00:49.609030 242848 net.cpp:434] fc7_mbox_loc_flat <- fc7_mbox_loc_perm
I0308 15:00:49.609042 242848 net.cpp:408] fc7_mbox_loc_flat -> fc7_mbox_loc_flat
I0308 15:00:49.609096 242848 net.cpp:150] Setting up fc7_mbox_loc_flat
I0308 15:00:49.609109 242848 net.cpp:157] Top shape: 8 8664 (69312)
I0308 15:00:49.609118 242848 net.cpp:165] Memory required for data: 1981221920
I0308 15:00:49.609127 242848 layer_factory.hpp:77] Creating layer fc7_mbox_conf
I0308 15:00:49.609148 242848 net.cpp:100] Creating Layer fc7_mbox_conf
I0308 15:00:49.609158 242848 net.cpp:434] fc7_mbox_conf <- fc7_relu7_0_split_2
I0308 15:00:49.609175 242848 net.cpp:408] fc7_mbox_conf -> fc7_mbox_conf
I0308 15:00:49.614267 242848 net.cpp:150] Setting up fc7_mbox_conf
I0308 15:00:49.614292 242848 net.cpp:157] Top shape: 8 12 19 19 (34656)
I0308 15:00:49.614310 242848 net.cpp:165] Memory required for data: 1981360544
I0308 15:00:49.614336 242848 layer_factory.hpp:77] Creating layer fc7_mbox_conf_perm
I0308 15:00:49.614352 242848 net.cpp:100] Creating Layer fc7_mbox_conf_perm
I0308 15:00:49.614363 242848 net.cpp:434] fc7_mbox_conf_perm <- fc7_mbox_conf
I0308 15:00:49.614379 242848 net.cpp:408] fc7_mbox_conf_perm -> fc7_mbox_conf_perm
I0308 15:00:49.614609 242848 net.cpp:150] Setting up fc7_mbox_conf_perm
I0308 15:00:49.614625 242848 net.cpp:157] Top shape: 8 19 19 12 (34656)
I0308 15:00:49.614634 242848 net.cpp:165] Memory required for data: 1981499168
I0308 15:00:49.614644 242848 layer_factory.hpp:77] Creating layer fc7_mbox_conf_flat
I0308 15:00:49.614680 242848 net.cpp:100] Creating Layer fc7_mbox_conf_flat
I0308 15:00:49.614691 242848 net.cpp:434] fc7_mbox_conf_flat <- fc7_mbox_conf_perm
I0308 15:00:49.614706 242848 net.cpp:408] fc7_mbox_conf_flat -> fc7_mbox_conf_flat
I0308 15:00:49.614758 242848 net.cpp:150] Setting up fc7_mbox_conf_flat
I0308 15:00:49.614771 242848 net.cpp:157] Top shape: 8 4332 (34656)
I0308 15:00:49.614780 242848 net.cpp:165] Memory required for data: 1981637792
I0308 15:00:49.614789 242848 layer_factory.hpp:77] Creating layer fc7_mbox_priorbox
I0308 15:00:49.614805 242848 net.cpp:100] Creating Layer fc7_mbox_priorbox
I0308 15:00:49.614815 242848 net.cpp:434] fc7_mbox_priorbox <- fc7_relu7_0_split_3
I0308 15:00:49.614827 242848 net.cpp:434] fc7_mbox_priorbox <- data_data_0_split_2
I0308 15:00:49.614842 242848 net.cpp:408] fc7_mbox_priorbox -> fc7_mbox_priorbox
I0308 15:00:49.614893 242848 net.cpp:150] Setting up fc7_mbox_priorbox
I0308 15:00:49.614908 242848 net.cpp:157] Top shape: 1 2 8664 (17328)
I0308 15:00:49.614917 242848 net.cpp:165] Memory required for data: 1981707104
I0308 15:00:49.614925 242848 layer_factory.hpp:77] Creating layer conv6_2_mbox_loc
I0308 15:00:49.614948 242848 net.cpp:100] Creating Layer conv6_2_mbox_loc
I0308 15:00:49.614959 242848 net.cpp:434] conv6_2_mbox_loc <- conv6_2_conv6_2_relu_0_split_1
I0308 15:00:49.614974 242848 net.cpp:408] conv6_2_mbox_loc -> conv6_2_mbox_loc
I0308 15:00:49.620088 242848 net.cpp:150] Setting up conv6_2_mbox_loc
I0308 15:00:49.620115 242848 net.cpp:157] Top shape: 8 24 10 10 (19200)
I0308 15:00:49.620132 242848 net.cpp:165] Memory required for data: 1981783904
I0308 15:00:49.620158 242848 layer_factory.hpp:77] Creating layer conv6_2_mbox_loc_perm
I0308 15:00:49.620178 242848 net.cpp:100] Creating Layer conv6_2_mbox_loc_perm
I0308 15:00:49.620188 242848 net.cpp:434] conv6_2_mbox_loc_perm <- conv6_2_mbox_loc
I0308 15:00:49.620203 242848 net.cpp:408] conv6_2_mbox_loc_perm -> conv6_2_mbox_loc_perm
I0308 15:00:49.620434 242848 net.cpp:150] Setting up conv6_2_mbox_loc_perm
I0308 15:00:49.620450 242848 net.cpp:157] Top shape: 8 10 10 24 (19200)
I0308 15:00:49.620458 242848 net.cpp:165] Memory required for data: 1981860704
I0308 15:00:49.620467 242848 layer_factory.hpp:77] Creating layer conv6_2_mbox_loc_flat
I0308 15:00:49.620481 242848 net.cpp:100] Creating Layer conv6_2_mbox_loc_flat
I0308 15:00:49.620491 242848 net.cpp:434] conv6_2_mbox_loc_flat <- conv6_2_mbox_loc_perm
I0308 15:00:49.620502 242848 net.cpp:408] conv6_2_mbox_loc_flat -> conv6_2_mbox_loc_flat
I0308 15:00:49.620553 242848 net.cpp:150] Setting up conv6_2_mbox_loc_flat
I0308 15:00:49.620568 242848 net.cpp:157] Top shape: 8 2400 (19200)
I0308 15:00:49.620575 242848 net.cpp:165] Memory required for data: 1981937504
I0308 15:00:49.620584 242848 layer_factory.hpp:77] Creating layer conv6_2_mbox_conf
I0308 15:00:49.620606 242848 net.cpp:100] Creating Layer conv6_2_mbox_conf
I0308 15:00:49.620617 242848 net.cpp:434] conv6_2_mbox_conf <- conv6_2_conv6_2_relu_0_split_2
I0308 15:00:49.620631 242848 net.cpp:408] conv6_2_mbox_conf -> conv6_2_mbox_conf
I0308 15:00:49.623980 242848 net.cpp:150] Setting up conv6_2_mbox_conf
I0308 15:00:49.624006 242848 net.cpp:157] Top shape: 8 12 10 10 (9600)
I0308 15:00:49.624016 242848 net.cpp:165] Memory required for data: 1981975904
I0308 15:00:49.624032 242848 layer_factory.hpp:77] Creating layer conv6_2_mbox_conf_perm
I0308 15:00:49.624048 242848 net.cpp:100] Creating Layer conv6_2_mbox_conf_perm
I0308 15:00:49.624059 242848 net.cpp:434] conv6_2_mbox_conf_perm <- conv6_2_mbox_conf
I0308 15:00:49.624073 242848 net.cpp:408] conv6_2_mbox_conf_perm -> conv6_2_mbox_conf_perm
I0308 15:00:49.624303 242848 net.cpp:150] Setting up conv6_2_mbox_conf_perm
I0308 15:00:49.624320 242848 net.cpp:157] Top shape: 8 10 10 12 (9600)
I0308 15:00:49.624328 242848 net.cpp:165] Memory required for data: 1982014304
I0308 15:00:49.624336 242848 layer_factory.hpp:77] Creating layer conv6_2_mbox_conf_flat
I0308 15:00:49.624351 242848 net.cpp:100] Creating Layer conv6_2_mbox_conf_flat
I0308 15:00:49.624377 242848 net.cpp:434] conv6_2_mbox_conf_flat <- conv6_2_mbox_conf_perm
I0308 15:00:49.624390 242848 net.cpp:408] conv6_2_mbox_conf_flat -> conv6_2_mbox_conf_flat
I0308 15:00:49.624444 242848 net.cpp:150] Setting up conv6_2_mbox_conf_flat
I0308 15:00:49.624459 242848 net.cpp:157] Top shape: 8 1200 (9600)
I0308 15:00:49.624467 242848 net.cpp:165] Memory required for data: 1982052704
I0308 15:00:49.624476 242848 layer_factory.hpp:77] Creating layer conv6_2_mbox_priorbox
I0308 15:00:49.624492 242848 net.cpp:100] Creating Layer conv6_2_mbox_priorbox
I0308 15:00:49.624502 242848 net.cpp:434] conv6_2_mbox_priorbox <- conv6_2_conv6_2_relu_0_split_3
I0308 15:00:49.624514 242848 net.cpp:434] conv6_2_mbox_priorbox <- data_data_0_split_3
I0308 15:00:49.624527 242848 net.cpp:408] conv6_2_mbox_priorbox -> conv6_2_mbox_priorbox
I0308 15:00:49.624581 242848 net.cpp:150] Setting up conv6_2_mbox_priorbox
I0308 15:00:49.624595 242848 net.cpp:157] Top shape: 1 2 2400 (4800)
I0308 15:00:49.624604 242848 net.cpp:165] Memory required for data: 1982071904
I0308 15:00:49.624613 242848 layer_factory.hpp:77] Creating layer conv7_2_mbox_loc
I0308 15:00:49.624632 242848 net.cpp:100] Creating Layer conv7_2_mbox_loc
I0308 15:00:49.624644 242848 net.cpp:434] conv7_2_mbox_loc <- conv7_2_conv7_2_relu_0_split_1
I0308 15:00:49.624660 242848 net.cpp:408] conv7_2_mbox_loc -> conv7_2_mbox_loc
I0308 15:00:49.628013 242848 net.cpp:150] Setting up conv7_2_mbox_loc
I0308 15:00:49.628038 242848 net.cpp:157] Top shape: 8 24 5 5 (4800)
I0308 15:00:49.628048 242848 net.cpp:165] Memory required for data: 1982091104
I0308 15:00:49.628064 242848 layer_factory.hpp:77] Creating layer conv7_2_mbox_loc_perm
I0308 15:00:49.628082 242848 net.cpp:100] Creating Layer conv7_2_mbox_loc_perm
I0308 15:00:49.628093 242848 net.cpp:434] conv7_2_mbox_loc_perm <- conv7_2_mbox_loc
I0308 15:00:49.628106 242848 net.cpp:408] conv7_2_mbox_loc_perm -> conv7_2_mbox_loc_perm
I0308 15:00:49.628326 242848 net.cpp:150] Setting up conv7_2_mbox_loc_perm
I0308 15:00:49.628342 242848 net.cpp:157] Top shape: 8 5 5 24 (4800)
I0308 15:00:49.628350 242848 net.cpp:165] Memory required for data: 1982110304
I0308 15:00:49.628360 242848 layer_factory.hpp:77] Creating layer conv7_2_mbox_loc_flat
I0308 15:00:49.628373 242848 net.cpp:100] Creating Layer conv7_2_mbox_loc_flat
I0308 15:00:49.628382 242848 net.cpp:434] conv7_2_mbox_loc_flat <- conv7_2_mbox_loc_perm
I0308 15:00:49.628396 242848 net.cpp:408] conv7_2_mbox_loc_flat -> conv7_2_mbox_loc_flat
I0308 15:00:49.628446 242848 net.cpp:150] Setting up conv7_2_mbox_loc_flat
I0308 15:00:49.628459 242848 net.cpp:157] Top shape: 8 600 (4800)
I0308 15:00:49.628468 242848 net.cpp:165] Memory required for data: 1982129504
I0308 15:00:49.628476 242848 layer_factory.hpp:77] Creating layer conv7_2_mbox_conf
I0308 15:00:49.628499 242848 net.cpp:100] Creating Layer conv7_2_mbox_conf
I0308 15:00:49.628509 242848 net.cpp:434] conv7_2_mbox_conf <- conv7_2_conv7_2_relu_0_split_2
I0308 15:00:49.628523 242848 net.cpp:408] conv7_2_mbox_conf -> conv7_2_mbox_conf
I0308 15:00:49.631938 242848 net.cpp:150] Setting up conv7_2_mbox_conf
I0308 15:00:49.631963 242848 net.cpp:157] Top shape: 8 12 5 5 (2400)
I0308 15:00:49.631973 242848 net.cpp:165] Memory required for data: 1982139104
I0308 15:00:49.631990 242848 layer_factory.hpp:77] Creating layer conv7_2_mbox_conf_perm
I0308 15:00:49.632005 242848 net.cpp:100] Creating Layer conv7_2_mbox_conf_perm
I0308 15:00:49.632015 242848 net.cpp:434] conv7_2_mbox_conf_perm <- conv7_2_mbox_conf
I0308 15:00:49.632031 242848 net.cpp:408] conv7_2_mbox_conf_perm -> conv7_2_mbox_conf_perm
I0308 15:00:49.632264 242848 net.cpp:150] Setting up conv7_2_mbox_conf_perm
I0308 15:00:49.632280 242848 net.cpp:157] Top shape: 8 5 5 12 (2400)
I0308 15:00:49.632289 242848 net.cpp:165] Memory required for data: 1982148704
I0308 15:00:49.632299 242848 layer_factory.hpp:77] Creating layer conv7_2_mbox_conf_flat
I0308 15:00:49.632314 242848 net.cpp:100] Creating Layer conv7_2_mbox_conf_flat
I0308 15:00:49.632324 242848 net.cpp:434] conv7_2_mbox_conf_flat <- conv7_2_mbox_conf_perm
I0308 15:00:49.632357 242848 net.cpp:408] conv7_2_mbox_conf_flat -> conv7_2_mbox_conf_flat
I0308 15:00:49.632411 242848 net.cpp:150] Setting up conv7_2_mbox_conf_flat
I0308 15:00:49.632424 242848 net.cpp:157] Top shape: 8 300 (2400)
I0308 15:00:49.632433 242848 net.cpp:165] Memory required for data: 1982158304
I0308 15:00:49.632441 242848 layer_factory.hpp:77] Creating layer conv7_2_mbox_priorbox
I0308 15:00:49.632458 242848 net.cpp:100] Creating Layer conv7_2_mbox_priorbox
I0308 15:00:49.632468 242848 net.cpp:434] conv7_2_mbox_priorbox <- conv7_2_conv7_2_relu_0_split_3
I0308 15:00:49.632479 242848 net.cpp:434] conv7_2_mbox_priorbox <- data_data_0_split_4
I0308 15:00:49.632498 242848 net.cpp:408] conv7_2_mbox_priorbox -> conv7_2_mbox_priorbox
I0308 15:00:49.632550 242848 net.cpp:150] Setting up conv7_2_mbox_priorbox
I0308 15:00:49.632563 242848 net.cpp:157] Top shape: 1 2 600 (1200)
I0308 15:00:49.632572 242848 net.cpp:165] Memory required for data: 1982163104
I0308 15:00:49.632581 242848 layer_factory.hpp:77] Creating layer conv8_2_mbox_loc
I0308 15:00:49.632604 242848 net.cpp:100] Creating Layer conv8_2_mbox_loc
I0308 15:00:49.632614 242848 net.cpp:434] conv8_2_mbox_loc <- conv8_2_conv8_2_relu_0_split_1
I0308 15:00:49.632629 242848 net.cpp:408] conv8_2_mbox_loc -> conv8_2_mbox_loc
I0308 15:00:49.636951 242848 net.cpp:150] Setting up conv8_2_mbox_loc
I0308 15:00:49.636984 242848 net.cpp:157] Top shape: 8 16 3 3 (1152)
I0308 15:00:49.636994 242848 net.cpp:165] Memory required for data: 1982167712
I0308 15:00:49.637040 242848 layer_factory.hpp:77] Creating layer conv8_2_mbox_loc_perm
I0308 15:00:49.637058 242848 net.cpp:100] Creating Layer conv8_2_mbox_loc_perm
I0308 15:00:49.637069 242848 net.cpp:434] conv8_2_mbox_loc_perm <- conv8_2_mbox_loc
I0308 15:00:49.637084 242848 net.cpp:408] conv8_2_mbox_loc_perm -> conv8_2_mbox_loc_perm
I0308 15:00:49.637318 242848 net.cpp:150] Setting up conv8_2_mbox_loc_perm
I0308 15:00:49.637336 242848 net.cpp:157] Top shape: 8 3 3 16 (1152)
I0308 15:00:49.637344 242848 net.cpp:165] Memory required for data: 1982172320
I0308 15:00:49.637354 242848 layer_factory.hpp:77] Creating layer conv8_2_mbox_loc_flat
I0308 15:00:49.637368 242848 net.cpp:100] Creating Layer conv8_2_mbox_loc_flat
I0308 15:00:49.637378 242848 net.cpp:434] conv8_2_mbox_loc_flat <- conv8_2_mbox_loc_perm
I0308 15:00:49.637393 242848 net.cpp:408] conv8_2_mbox_loc_flat -> conv8_2_mbox_loc_flat
I0308 15:00:49.637442 242848 net.cpp:150] Setting up conv8_2_mbox_loc_flat
I0308 15:00:49.637455 242848 net.cpp:157] Top shape: 8 144 (1152)
I0308 15:00:49.637465 242848 net.cpp:165] Memory required for data: 1982176928
I0308 15:00:49.637473 242848 layer_factory.hpp:77] Creating layer conv8_2_mbox_conf
I0308 15:00:49.637495 242848 net.cpp:100] Creating Layer conv8_2_mbox_conf
I0308 15:00:49.637506 242848 net.cpp:434] conv8_2_mbox_conf <- conv8_2_conv8_2_relu_0_split_2
I0308 15:00:49.637521 242848 net.cpp:408] conv8_2_mbox_conf -> conv8_2_mbox_conf
I0308 15:00:49.640770 242848 net.cpp:150] Setting up conv8_2_mbox_conf
I0308 15:00:49.640794 242848 net.cpp:157] Top shape: 8 8 3 3 (576)
I0308 15:00:49.640805 242848 net.cpp:165] Memory required for data: 1982179232
I0308 15:00:49.640823 242848 layer_factory.hpp:77] Creating layer conv8_2_mbox_conf_perm
I0308 15:00:49.640839 242848 net.cpp:100] Creating Layer conv8_2_mbox_conf_perm
I0308 15:00:49.640849 242848 net.cpp:434] conv8_2_mbox_conf_perm <- conv8_2_mbox_conf
I0308 15:00:49.640863 242848 net.cpp:408] conv8_2_mbox_conf_perm -> conv8_2_mbox_conf_perm
I0308 15:00:49.641108 242848 net.cpp:150] Setting up conv8_2_mbox_conf_perm
I0308 15:00:49.641125 242848 net.cpp:157] Top shape: 8 3 3 8 (576)
I0308 15:00:49.641134 242848 net.cpp:165] Memory required for data: 1982181536
I0308 15:00:49.641144 242848 layer_factory.hpp:77] Creating layer conv8_2_mbox_conf_flat
I0308 15:00:49.641157 242848 net.cpp:100] Creating Layer conv8_2_mbox_conf_flat
I0308 15:00:49.641167 242848 net.cpp:434] conv8_2_mbox_conf_flat <- conv8_2_mbox_conf_perm
I0308 15:00:49.641183 242848 net.cpp:408] conv8_2_mbox_conf_flat -> conv8_2_mbox_conf_flat
I0308 15:00:49.641255 242848 net.cpp:150] Setting up conv8_2_mbox_conf_flat
I0308 15:00:49.641271 242848 net.cpp:157] Top shape: 8 72 (576)
I0308 15:00:49.641280 242848 net.cpp:165] Memory required for data: 1982183840
I0308 15:00:49.641289 242848 layer_factory.hpp:77] Creating layer conv8_2_mbox_priorbox
I0308 15:00:49.641304 242848 net.cpp:100] Creating Layer conv8_2_mbox_priorbox
I0308 15:00:49.641314 242848 net.cpp:434] conv8_2_mbox_priorbox <- conv8_2_conv8_2_relu_0_split_3
I0308 15:00:49.641325 242848 net.cpp:434] conv8_2_mbox_priorbox <- data_data_0_split_5
I0308 15:00:49.641340 242848 net.cpp:408] conv8_2_mbox_priorbox -> conv8_2_mbox_priorbox
I0308 15:00:49.641397 242848 net.cpp:150] Setting up conv8_2_mbox_priorbox
I0308 15:00:49.641412 242848 net.cpp:157] Top shape: 1 2 144 (288)
I0308 15:00:49.641420 242848 net.cpp:165] Memory required for data: 1982184992
I0308 15:00:49.641428 242848 layer_factory.hpp:77] Creating layer conv9_2_mbox_loc
I0308 15:00:49.641453 242848 net.cpp:100] Creating Layer conv9_2_mbox_loc
I0308 15:00:49.641464 242848 net.cpp:434] conv9_2_mbox_loc <- conv9_2_conv9_2_relu_0_split_0
I0308 15:00:49.641480 242848 net.cpp:408] conv9_2_mbox_loc -> conv9_2_mbox_loc
I0308 15:00:49.645138 242848 net.cpp:150] Setting up conv9_2_mbox_loc
I0308 15:00:49.645164 242848 net.cpp:157] Top shape: 8 16 1 1 (128)
I0308 15:00:49.645174 242848 net.cpp:165] Memory required for data: 1982185504
I0308 15:00:49.645190 242848 layer_factory.hpp:77] Creating layer conv9_2_mbox_loc_perm
I0308 15:00:49.645208 242848 net.cpp:100] Creating Layer conv9_2_mbox_loc_perm
I0308 15:00:49.645220 242848 net.cpp:434] conv9_2_mbox_loc_perm <- conv9_2_mbox_loc
I0308 15:00:49.645233 242848 net.cpp:408] conv9_2_mbox_loc_perm -> conv9_2_mbox_loc_perm
I0308 15:00:49.645467 242848 net.cpp:150] Setting up conv9_2_mbox_loc_perm
I0308 15:00:49.645483 242848 net.cpp:157] Top shape: 8 1 1 16 (128)
I0308 15:00:49.645491 242848 net.cpp:165] Memory required for data: 1982186016
I0308 15:00:49.645500 242848 layer_factory.hpp:77] Creating layer conv9_2_mbox_loc_flat
I0308 15:00:49.645514 242848 net.cpp:100] Creating Layer conv9_2_mbox_loc_flat
I0308 15:00:49.645524 242848 net.cpp:434] conv9_2_mbox_loc_flat <- conv9_2_mbox_loc_perm
I0308 15:00:49.645539 242848 net.cpp:408] conv9_2_mbox_loc_flat -> conv9_2_mbox_loc_flat
I0308 15:00:49.645588 242848 net.cpp:150] Setting up conv9_2_mbox_loc_flat
I0308 15:00:49.645601 242848 net.cpp:157] Top shape: 8 16 (128)
I0308 15:00:49.645611 242848 net.cpp:165] Memory required for data: 1982186528
I0308 15:00:49.645618 242848 layer_factory.hpp:77] Creating layer conv9_2_mbox_conf
I0308 15:00:49.645642 242848 net.cpp:100] Creating Layer conv9_2_mbox_conf
I0308 15:00:49.645651 242848 net.cpp:434] conv9_2_mbox_conf <- conv9_2_conv9_2_relu_0_split_1
I0308 15:00:49.645666 242848 net.cpp:408] conv9_2_mbox_conf -> conv9_2_mbox_conf
I0308 15:00:49.648954 242848 net.cpp:150] Setting up conv9_2_mbox_conf
I0308 15:00:49.648988 242848 net.cpp:157] Top shape: 8 8 1 1 (64)
I0308 15:00:49.648998 242848 net.cpp:165] Memory required for data: 1982186784
I0308 15:00:49.649014 242848 layer_factory.hpp:77] Creating layer conv9_2_mbox_conf_perm
I0308 15:00:49.649030 242848 net.cpp:100] Creating Layer conv9_2_mbox_conf_perm
I0308 15:00:49.649041 242848 net.cpp:434] conv9_2_mbox_conf_perm <- conv9_2_mbox_conf
I0308 15:00:49.649057 242848 net.cpp:408] conv9_2_mbox_conf_perm -> conv9_2_mbox_conf_perm
I0308 15:00:49.649297 242848 net.cpp:150] Setting up conv9_2_mbox_conf_perm
I0308 15:00:49.649313 242848 net.cpp:157] Top shape: 8 1 1 8 (64)
I0308 15:00:49.649322 242848 net.cpp:165] Memory required for data: 1982187040
I0308 15:00:49.649332 242848 layer_factory.hpp:77] Creating layer conv9_2_mbox_conf_flat
I0308 15:00:49.649348 242848 net.cpp:100] Creating Layer conv9_2_mbox_conf_flat
I0308 15:00:49.649358 242848 net.cpp:434] conv9_2_mbox_conf_flat <- conv9_2_mbox_conf_perm
I0308 15:00:49.649369 242848 net.cpp:408] conv9_2_mbox_conf_flat -> conv9_2_mbox_conf_flat
I0308 15:00:49.649421 242848 net.cpp:150] Setting up conv9_2_mbox_conf_flat
I0308 15:00:49.649453 242848 net.cpp:157] Top shape: 8 8 (64)
I0308 15:00:49.649463 242848 net.cpp:165] Memory required for data: 1982187296
I0308 15:00:49.649473 242848 layer_factory.hpp:77] Creating layer conv9_2_mbox_priorbox
I0308 15:00:49.649488 242848 net.cpp:100] Creating Layer conv9_2_mbox_priorbox
I0308 15:00:49.649498 242848 net.cpp:434] conv9_2_mbox_priorbox <- conv9_2_conv9_2_relu_0_split_2
I0308 15:00:49.649513 242848 net.cpp:434] conv9_2_mbox_priorbox <- data_data_0_split_6
I0308 15:00:49.649525 242848 net.cpp:408] conv9_2_mbox_priorbox -> conv9_2_mbox_priorbox
I0308 15:00:49.649583 242848 net.cpp:150] Setting up conv9_2_mbox_priorbox
I0308 15:00:49.649597 242848 net.cpp:157] Top shape: 1 2 16 (32)
I0308 15:00:49.649606 242848 net.cpp:165] Memory required for data: 1982187424
I0308 15:00:49.649616 242848 layer_factory.hpp:77] Creating layer mbox_loc
I0308 15:00:49.649631 242848 net.cpp:100] Creating Layer mbox_loc
I0308 15:00:49.649641 242848 net.cpp:434] mbox_loc <- conv4_3_norm_mbox_loc_flat
I0308 15:00:49.649653 242848 net.cpp:434] mbox_loc <- fc7_mbox_loc_flat
I0308 15:00:49.649664 242848 net.cpp:434] mbox_loc <- conv6_2_mbox_loc_flat
I0308 15:00:49.649675 242848 net.cpp:434] mbox_loc <- conv7_2_mbox_loc_flat
I0308 15:00:49.649685 242848 net.cpp:434] mbox_loc <- conv8_2_mbox_loc_flat
I0308 15:00:49.649695 242848 net.cpp:434] mbox_loc <- conv9_2_mbox_loc_flat
I0308 15:00:49.649710 242848 net.cpp:408] mbox_loc -> mbox_loc
I0308 15:00:49.649771 242848 net.cpp:150] Setting up mbox_loc
I0308 15:00:49.649785 242848 net.cpp:157] Top shape: 8 34928 (279424)
I0308 15:00:49.649793 242848 net.cpp:165] Memory required for data: 1983305120
I0308 15:00:49.649801 242848 layer_factory.hpp:77] Creating layer mbox_conf
I0308 15:00:49.649816 242848 net.cpp:100] Creating Layer mbox_conf
I0308 15:00:49.649826 242848 net.cpp:434] mbox_conf <- conv4_3_norm_mbox_conf_flat
I0308 15:00:49.649837 242848 net.cpp:434] mbox_conf <- fc7_mbox_conf_flat
I0308 15:00:49.649847 242848 net.cpp:434] mbox_conf <- conv6_2_mbox_conf_flat
I0308 15:00:49.649858 242848 net.cpp:434] mbox_conf <- conv7_2_mbox_conf_flat
I0308 15:00:49.649868 242848 net.cpp:434] mbox_conf <- conv8_2_mbox_conf_flat
I0308 15:00:49.649878 242848 net.cpp:434] mbox_conf <- conv9_2_mbox_conf_flat
I0308 15:00:49.649890 242848 net.cpp:408] mbox_conf -> mbox_conf
I0308 15:00:49.649945 242848 net.cpp:150] Setting up mbox_conf
I0308 15:00:49.649958 242848 net.cpp:157] Top shape: 8 17464 (139712)
I0308 15:00:49.649966 242848 net.cpp:165] Memory required for data: 1983863968
I0308 15:00:49.649974 242848 layer_factory.hpp:77] Creating layer mbox_priorbox
I0308 15:00:49.649987 242848 net.cpp:100] Creating Layer mbox_priorbox
I0308 15:00:49.649997 242848 net.cpp:434] mbox_priorbox <- conv4_3_norm_mbox_priorbox
I0308 15:00:49.650008 242848 net.cpp:434] mbox_priorbox <- fc7_mbox_priorbox
I0308 15:00:49.650019 242848 net.cpp:434] mbox_priorbox <- conv6_2_mbox_priorbox
I0308 15:00:49.650029 242848 net.cpp:434] mbox_priorbox <- conv7_2_mbox_priorbox
I0308 15:00:49.650038 242848 net.cpp:434] mbox_priorbox <- conv8_2_mbox_priorbox
I0308 15:00:49.650048 242848 net.cpp:434] mbox_priorbox <- conv9_2_mbox_priorbox
I0308 15:00:49.650058 242848 net.cpp:408] mbox_priorbox -> mbox_priorbox
I0308 15:00:49.650110 242848 net.cpp:150] Setting up mbox_priorbox
I0308 15:00:49.650122 242848 net.cpp:157] Top shape: 1 2 34928 (69856)
I0308 15:00:49.650131 242848 net.cpp:165] Memory required for data: 1984143392
I0308 15:00:49.650140 242848 layer_factory.hpp:77] Creating layer mbox_loss
I0308 15:00:49.650159 242848 net.cpp:100] Creating Layer mbox_loss
I0308 15:00:49.650169 242848 net.cpp:434] mbox_loss <- mbox_loc
I0308 15:00:49.650180 242848 net.cpp:434] mbox_loss <- mbox_conf
I0308 15:00:49.650190 242848 net.cpp:434] mbox_loss <- mbox_priorbox
…
name: "VGG_CHN_SSD_300x300_test"
state {
  phase: TEST
}
layer {
  name: "data"
  type: "AnnotatedData"
  top: "data"
  top: "label"
  include {
    phase: TEST
  }
  transform_param {
    mean_value: 104
    mean_value: 117
    mean_value: 123
    resize_param {
      prob: 1
      resize_mode: WARP
      height: 300
      width: 300
      interp_mode: LINEAR
    }
  }
  data_param {
    source: "examples/chn/chn_test_lmdb"
    batch_size: 8
    backend: LMDB
  }
  annotated_data_param {
    batch_sampler {
    }
    label_map_file: "data/chn/labelmap_voc.prototxt"
  }
}
layer {
  name: "conv1_1"
  type: "Convolution"
  bottom: "data"
  top: "conv1_1"
  param {
    lr_mult: 1
    decay_mult: 1
  }
  param {
    lr_mult: 2
    decay_mult: 0
  }
  convolution_param {
    num_output: 64
    pad: 1
    kernel_size: 3
    weight_filler {
      type: "xavier"
    }
    bias_filler {
      type: "constant"
      value: 0
    }
  }
}
layer {
  name: "relu1_1"
  type: "ReLU"
  bottom: "conv1_1"
  top: "conv1_1"
}
layer {
  name: "conv1_2"
  type: "Convolution"
  bottom: "conv1_1"
  top: "conv1_2"
  param {
    lr_mult: 1
    decay_mult: 1
  }
  param {
    lr_mult: 2
    decay_mult: 0
  }
  convolution_param {
    num_output: 64
    pad: 1
    kernel_size: 3
    weight_filler {
      type: "xavier"
    }
    bias_filler {
      type: "constant"
      value: 0
    }
  }
}
layer {
  name: "relu1_2"
  type: "ReLU"
  bottom: "conv1_2"
  top: "conv1_2"
}
layer {
  name: "pool1"
  type: "Pooling"
  bottom: "conv1_2"
  top: "pool1"
  pooling_param {
    pool: MAX
    kernel_size: 2
    stride: 2
  }
}
layer {
  name: "conv2_1"
  type: "Convolution"
  bottom: "pool1"
  top: "conv2_1"
  param {
    lr_mult: 1
    decay_mult: 1
  }
  param {
    lr_mult: 2
    decay_mult: 0
  }
  convolution_param {
    num_output: 128
    pad: 1
    kernel_size: 3
    weight_filler {
      type: "xavier"
    }
    bias_filler {
      type: "constant"
      value: 0
    }
  }
}
layer {
  name: "relu2_1"
  type: "ReLU"
  bottom: "conv2_1"
  top: "conv2_1"
}
layer {
  name: "conv2_2"
  type: "Convolution"
  bottom: "conv2_1"
  top: "conv2_2"
  param {
    lr_mult: 1
    decay_mult: 1
  }
  param {
    lr_mult: 2
    decay_mult: 0
  }
  convolution_param {
    num_output: 128
    pad: 1
    kernel_size: 3
    weight_filler {
      type: "xavier"
    }
    bias_filler {
      type: "constant"
      value: 0
    }
  }
}
layer {
  name: "relu2_2"
  type: "ReLU"
  bottom: "conv2_2"
  top: "conv2_2"
}
layer {
  name: "pool2"
  type: "Pooling"
  bottom: "conv2_2"
  top: "pool2"
  pooling_param {
    pool: MAX
    kernel_size: 2
    stride: 2
  }
}
layer {
  name: "conv3_1"
  type: "Convolution"
  bottom: "pool2"
  top: "conv3_1"
  param {
    lr_mult: 1
    decay_mult: 1
  }
  param {
    lr_mult: 2
    decay_mult: 0
  }
  convolution_param {
    num_output: 256
    pad: 1
    kernel_size: 3
    weight_filler {
      type: "xavier"
    }
    bias_filler {
      type: "constant"
      value: 0
    }
  }
}
layer {
  name: "relu3_1"
  type: "ReLU"
  bottom: "conv3_1"
  top: "conv3_1"
}
layer {
  name: "conv3_2"
  type: "Convolution"
  bottom: "conv3_1"
  top: "conv3_2"
  param {
    lr_mult: 1
    decay_mult: 1
  }
  param {
    lr_mult: 2
    decay_mult: 0
  }
  convolution_param {
    num_output: 256
    pad: 1
    kernel_size: 3
    weight_filler {
      type: "xavier"
    }
    bias_filler {
      type: "constant"
      value: 0
    }
  }
}
layer {
  name: "relu3_2"
  type: "ReLU"
  bottom: "conv3_2"
  top: "conv3_2"
}
layer {
  name: "conv3_3"
  type: "Convolution"
  bottom: "conv3_2"
  top: "conv3_3"
  param {
    lr_mult: 1
    decay_mult: 1
  }
  param {
    lr_mult: 2
    decay_mult: 0
  }
  convolution_param {
    num_output: 256
    pad: 1
    kernel_size: 3
    weight_filler {
      type: "xavier"
    }
    bias_filler {
      type: "constant"
      value: 0
    }
  }
}
layer {
  name: "relu3_3"
  type: "ReLU"
  bottom: "conv3_3"
  top: "conv3_3"
}
layer {
  name: "pool3"
  type: "Pooling"
  bottom: "conv3_3"
  top: "pool3"
  pooling_param {
    pool: MAX
    kernel_size: 2
    stride: 2
  }
}
layer {
  name: "conv4_1"
  type: "Convolution"
  bottom: "pool3"
  top: "conv4_1"
  param {
    lr_mult: 1
    decay_mult: 1
  }
  param {
    lr_mult: 2
    decay_mult: 0
  }
  convolution_param {
    num_output: 512
    pad: 1
    kernel_size: 3
    weight_filler {
      type: "xavier"
    }
    bias_filler {
      type: "constant"
      value: 0
    }
  }
}
layer {
  name: "relu4_1"
  type: "ReLU"
  bottom: "conv4_1"
  top: "conv4_1"
}
layer {
  name: "conv4_2"
  type: "Convolution"
  bottom: "conv4_1"
  top: "conv4_2"
  param {
    lr_mult: 1
    decay_mult: 1
  }
  param {
    lr_mult: 2
    decay_mult: 0
  }
  convolution_param {
    num_output: 512
    pad: 1
    kernel_size: 3
    weight_filler {
      type: "xavier"
    }
    bias_filler {
      type: "constant"
      value: 0
    }
  }
}
layer {
  name: "relu4_2"
  type: "ReLU"
  bottom: "conv4_2"
  top: "conv4_2"
}
layer {
  name: "conv4_3"
  type: "Convolution"
  bottom: "conv4_2"
  top: "conv4_3"
  param {
    lr_mult: 1
    decay_mult: 1
  }
  param {
    lr_mult: 2
    decay_mult: 0
  }
  convolution_param {
    num_output: 512
    pad: 1
    kernel_size: 3
    weight_filler {
      type: "xavier"
    }
    bias_filler {
      type: "constant"
      value: 0
    }
  }
}
layer {
  name: "relu4_3"
  type: "ReLU"
  bottom: "conv4_3"
  top: "conv4_3"
}
layer {
  name: "pool4"
  type: "Pooling"
  bottom: "conv4_3"
  top: "pool4"
  pooling_param {
    pool: MAX
    kernel_size: 2
    stride: 2
  }
}
layer {
  name: "conv5_1"
  type: "Convolution"
  bottom: "pool4"
  top: "conv5_1"
  param {
    lr_mult: 1
    decay_mult: 1
  }
  param {
    lr_mult: 2
    decay_mult: 0
  }
  convolution_param {
    num_output: 512
    pad: 1
    kernel_size: 3
    weight_filler {
      type: "xavier"
    }
    bias_filler {
      type: "constant"
      value: 0
    }
    dilation: 1
  }
}
layer {
  name: "relu5_1"
  type: "ReLU"
  bottom: "conv5_1"
  top: "conv5_1"
}
layer {
  name: "conv5_2"
  type: "Convolution"
  bottom: "conv5_1"
  top: "conv5_2"
  param {
    lr_mult: 1
    decay_mult: 1
  }
  param {
    lr_mult: 2
    decay_mult: 0
  }
  convolution_param {
    num_output: 512
    pad: 1
    kernel_size: 3
    weight_filler {
      type: "xavier"
    }
    bias_filler {
      type: "constant"
      value: 0
    }
    dilation: 1
  }
}
layer {
  name: "relu5_2"
  type: "ReLU"
  bottom: "conv5_2"
  top: "conv5_2"
}
layer {
  name: "conv5_3"
  type: "Convolution"
  bottom: "conv5_2"
  top: "conv5_3"
  param {
    lr_mult: 1
    decay_mult: 1
  }
  param {
    lr_mult: 2
    decay_mult: 0
  }
  convolution_param {
    num_output: 512
    pad: 1
    kernel_size: 3
    weight_filler {
      type: "xavier"
    }
    bias_filler {
      type: "constant"
      value: 0
    }
    dilation: 1
  }
}
layer {
  name: "relu5_3"
  type: "ReLU"
  bottom: "conv5_3"
  top: "conv5_3"
}
layer {
  name: "pool5"
  type: "Pooling"
  bottom: "conv5_3"
  top: "pool5"
  pooling_param {
    pool: MAX
    kernel_size: 3
    stride: 1
    pad: 1
  }
}
layer {
  name: "fc6"
  type: "Convolution"
  bottom: "pool5"
  top: "fc6"
  param {
    lr_mult: 1
    decay_mult: 1
  }
  param {
    lr_mult: 2
    decay_mult: 0
  }
  convolution_param {
    num_output: 1024
    pad: 6
    kernel_size: 3
    weight_filler {
      type: "xavier"
    }
    bias_filler {
      type: "constant"
      value: 0
    }
    dilation: 6
  }
}
layer {
  name: "relu6"
  type: "ReLU"
  bottom: "fc6"
  top: "fc6"
}
layer {
  name: "fc7"
  type: "Convolution"
  bottom: "fc6"
  top: "fc7"
  param {
    lr_mult: 1
    decay_mult: 1
  }
  param {
    lr_mult: 2
    decay_mult: 0
  }
  convolution_param {
    num_output: 1024
    kernel_size: 1
    weight_filler {
      type: "xavier"
    }
    bias_filler {
      type: "constant"
      value: 0
    }
  }
}
layer {
  name: "relu7"
  type: "ReLU"
  bottom: "fc7"
  top: "fc7"
}
layer {
  name: "conv6_1"
  type: "Convolution"
  bottom: "fc7"
  top: "conv6_1"
  param {
    lr_mult: 1
    decay_mult: 1
  }
  param {
    lr_mult: 2
    decay_mult: 0
  }
  convolution_param {
    num_output: 256
    pad: 0
    kernel_size: 1
    stride: 1
    weight_filler {
      type: "xavier"
    }
    bias_filler {
      type: "constant"
      value: 0
    }
  }
}
layer {
  name: "conv6_1_relu"
  type: "ReLU"
  bottom: "conv6_1"
  top: "conv6_1"
}
layer {
  name: "conv6_2"
  type: "Convolution"
  bottom: "conv6_1"
  top: "conv6_2"
  param {
    lr_mult: 1
    decay_mult: 1
  }
  param {
    lr_mult: 2
    decay_mult: 0
  }
  convolution_param {
    num_output: 512
    pad: 1
    kernel_size: 3
    stride: 2
    weight_filler {
      type: "xavier"
    }
    bias_filler {
      type: "constant"
      value: 0
    }
  }
}
layer {
  name: "conv6_2_relu"
  type: "ReLU"
  bottom: "conv6_2"
  top: "conv6_2"
}
layer {
  name: "conv7_1"
  type: "Convolution"
  bottom: "conv6_2"
  top: "conv7_1"
  param {
    lr_mult: 1
    decay_mult: 1
  }
  param {
    lr_mult: 2
    decay_mult: 0
  }
  convolution_param {
    num_output: 128
    pad: 0
    kernel_size: 1
    stride: 1
    weight_filler {
      type: "xavier"
    }
    bias_filler {
      type: "constant"
      value: 0
    }
  }
}
layer {
  name: "conv7_1_relu"
  type: "ReLU"
  bottom: "conv7_1"
  top: "conv7_1"
}
layer {
  name: "conv7_2"
  type: "Convolution"
  bottom: "conv7_1"
  top: "conv7_2"
  param {
    lr_mult: 1
    decay_mult: 1
  }
  param {
    lr_mult: 2
    decay_mult: 0
  }
  convolution_param {
    num_output: 256
    pad: 1
    kernel_size: 3
    stride: 2
    weight_filler {
      type: "xavier"
    }
    bias_filler {
      type: "constant"
      value: 0
    }
  }
}
layer {
  name: "conv7_2_relu"
  type: "ReLU"
  bottom: "conv7_2"
  top: "conv7_2"
}
layer {
  name: "conv8_1"
  type: "Convolution"
  bottom: "conv7_2"
  top: "conv8_1"
  param {
    lr_mult: 1
    decay_mult: 1
  }
  param {
    lr_mult: 2
    decay_mult: 0
  }
  convolution_param {
    num_output: 128
    pad: 0
    kernel_size: 1
    stride: 1
    weight_filler {
      type: "xavier"
    }
    bias_filler {
      type: "constant"
      value: 0
    }
  }
}
layer {
  name: "conv8_1_relu"
  type: "ReLU"
  bottom: "conv8_1"
  top: "conv8_1"
}
layer {
  name: "conv8_2"
  type: "Convolution"
  bottom: "conv8_1"
  top: "conv8_2"
  param {
    lr_mult: 1
    decay_mult: 1
  }
  param {
    lr_mult: 2
    decay_mult: 0
  }
  convolution_param {
    num_output: 256
    pad: 0
    kernel_size: 3
    stride: 1
    weight_filler {
      type: "xavier"
    }
    bias_filler {
      type: "constant"
      value: 0
    }
  }
}
layer {
  name: "conv8_2_relu"
  type: "ReLU"
  bottom: "conv8_2"
  top: "conv8_2"
}
layer {
  name: "conv9_1"
  type: "Convolution"
  bottom: "conv8_2"
  top: "conv9_1"
  param {
    lr_mult: 1
    decay_mult: 1
  }
  param {
    lr_mult: 2
    decay_mult: 0
  }
  convolution_param {
    num_output: 128
    pad: 0
    kernel_size: 1
    stride: 1
    weight_filler {
      type: "xavier"
    }
    bias_filler {
      type: "constant"
      value: 0
    }
  }
}
layer {
  name: "conv9_1_relu"
  type: "ReLU"
  bottom: "conv9_1"
  top: "conv9_1"
}
layer {
  name: "conv9_2"
  type: "Convolution"
  bottom: "conv9_1"
  top: "conv9_2"
  param {
    lr_mult: 1
    decay_mult: 1
  }
  param {
    lr_mult: 2
    decay_mult: 0
  }
  convolution_param {
    num_output: 256
    pad: 0
    kernel_size: 3
    stride: 1
    weight_filler {
      type: "xavier"
    }
    bias_filler {
      type: "constant"
      value: 0
    }
  }
}
layer {
  name: "conv9_2_relu"
  type: "ReLU"
  bottom: "conv9_2"
  top: "conv9_2"
}
layer {
  name: "conv4_3_norm"
  type: "Normalize"
  bottom: "conv4_3"
  top: "conv4_3_norm"
  norm_param {
    across_spatial: false
    scale_filler {
      type: "constant"
      value: 20
    }
    channel_shared: false
  }
}
layer {
  name: "conv4_3_norm_mbox_loc"
  type: "Convolution"
  bottom: "conv4_3_norm"
  top: "conv4_3_norm_mbox_loc"
  param {
    lr_mult: 1
    decay_mult: 1
  }
  param {
    lr_mult: 2
    decay_mult: 0
  }
  convolution_param {
    num_output: 16
    pad: 1
    kernel_size: 3
    stride: 1
    weight_filler {
      type: "xavier"
    }
    bias_filler {
      type: "constant"
      value: 0
    }
  }
}
layer {
  name: "conv4_3_norm_mbox_loc_perm"
  type: "Permute"
  bottom: "conv4_3_norm_mbox_loc"
  top: "conv4_3_norm_mbox_loc_perm"
  permute_param {
    order: 0
    order: 2
    order: 3
    order: 1
  }
}
layer {
  name: "conv4_3_norm_mbox_loc_flat"
  type: "Flatten"
  bottom: "conv4_3_norm_mbox_loc_perm"
  top: "conv4_3_norm_mbox_loc_flat"
  flatten_param {
    axis: 1
  }
}
layer {
  name: "conv4_3_norm_mbox_conf"
  type: "Convolution"
  bottom: "conv4_3_norm"
  top: "conv4_3_norm_mbox_conf"
  param {
    lr_mult: 1
    decay_mult: 1
  }
  param {
    lr_mult: 2
    decay_mult: 0
  }
  convolution_param {
    num_output: 8
    pad: 1
    kernel_size: 3
    stride: 1
    weight_filler {
      type: "xavier"
    }
    bias_filler {
      type: "constant"
      value: 0
    }
  }
}
layer {
  name: "conv4_3_norm_mbox_conf_perm"
  type: "Permute"
  bottom: "conv4_3_norm_mbox_conf"
  top: "conv4_3_norm_mbox_conf_perm"
  permute_param {
    order: 0
    order: 2
    order: 3
    order: 1
  }
}
layer {
  name: "conv4_3_norm_mbox_conf_flat"
  type: "Flatten"
  bottom: "conv4_3_norm_mbox_conf_perm"
  top: "conv4_3_norm_mbox_conf_flat"
  flatten_param {
    axis: 1
  }
}
layer {
  name: "conv4_3_norm_mbox_priorbox"
  type: "PriorBox"
  bottom: "conv4_3_norm"
  bottom: "data"
  top: "conv4_3_norm_mbox_priorbox"
  prior_box_param {
    min_size: 30
    max_size: 60
    aspect_ratio: 2
    flip: true
    clip: false
    variance: 0.1
    variance: 0.1
    variance: 0.2
    variance: 0.2
    step: 8
    offset: 0.5
  }
}
layer {
  name: "fc7_mbox_loc"
  type: "Convolution"
  bottom: "fc7"
  top: "fc7_mbox_loc"
  param {
    lr_mult: 1
    decay_mult: 1
  }
  param {
    lr_mult: 2
    decay_mult: 0
  }
  convolution_param {
    num_output: 24
    pad: 1
    kernel_size: 3
    stride: 1
    weight_filler {
      type: "xavier"
    }
    bias_filler {
      type: "constant"
      value: 0
    }
  }
}
layer {
  name: "fc7_mbox_loc_perm"
  type: "Permute"
  bottom: "fc7_mbox_loc"
  top: "fc7_mbox_loc_perm"
  permute_param {
    order: 0
    order: 2
    order: 3
    order: 1
  }
}
layer {
  name: "fc7_mbox_loc_flat"
  type: "Flatten"
  bottom: "fc7_mbox_loc_perm"
  top: "fc7_mbox_loc_flat"
  flatten_param {
    axis: 1
  }
}
layer {
  name: "fc7_mbox_conf"
  type: "Convolution"
  bottom: "fc7"
  top: "fc7_mbox_conf"
  param {
    lr_mult: 1
    decay_mult: 1
  }
  param {
    lr_mult: 2
    decay_mult: 0
  }
  convolution_param {
    num_output: 12
    pad: 1
    kernel_size: 3
    stride: 1
    weight_filler {
      type: "xavier"
    }
    bias_filler {
      type: "constant"
      value: 0
    }
  }
}
layer {
  name: "fc7_mbox_conf_perm"
  type: "Permute"
  bottom: "fc7_mbox_conf"
  top: "fc7_mbox_conf_perm"
  permute_param {
    order: 0
    order: 2
    order: 3
    order: 1
  }
}
layer {
  name: "fc7_mbox_conf_flat"
  type: "Flatten"
  bottom: "fc7_mbox_conf_perm"
  top: "fc7_mbox_conf_flat"
  flatten_param {
    axis: 1
  }
}
layer {
  name: "fc7_mbox_priorbox"
  type: "PriorBox"
  bottom: "fc7"
  bottom: "data"
  top: "fc7_mbox_priorbox"
  prior_box_param {
    min_size: 60
    max_size: 111
    aspect_ratio: 2
    aspect_ratio: 3
    flip: true
    clip: false
    variance: 0.1
    variance: 0.1
    variance: 0.2
    variance: 0.2
    step: 16
    offset: 0.5
  }
}
layer {
  name: "conv6_2_mbox_loc"
  type: "Convolution"
  bottom: "conv6_2"
  top: "conv6_2_mbox_loc"
  param {
    lr_mult: 1
    decay_mult: 1
  }
  param {
    lr_mult: 2
    decay_mult: 0
  }
  convolution_param {
    num_output: 24
    pad: 1
    kernel_size: 3
    stride: 1
    weight_filler {
      type: "xavier"
    }
    bias_filler {
      type: "constant"
      value: 0
    }
  }
}
layer {
  name: "conv6_2_mbox_loc_perm"
  type: "Permute"
  bottom: "conv6_2_mbox_loc"
  top: "conv6_2_mbox_loc_perm"
  permute_param {
    order: 0
    order: 2
    order: 3
    order: 1
  }
}
layer {
  name: "conv6_2_mbox_loc_flat"
  type: "Flatten"
  bottom: "conv6_2_mbox_loc_perm"
  top: "conv6_2_mbox_loc_flat"
  flatten_param {
    axis: 1
  }
}
layer {
  name: "conv6_2_mbox_conf"
  type: "Convolution"
  bottom: "conv6_2"
  top: "conv6_2_mbox_conf"
  param {
    lr_mult: 1
    decay_mult: 1
  }
  param {
    lr_mult: 2
    decay_mult: 0
  }
  convolution_param {
    num_output: 12
    pad: 1
    kernel_size: 3
    stride: 1
    weight_filler {
      type: "xavier"
    }
    bias_filler {
      type: "constant"
      value: 0
    }
  }
}
layer {
  name: "conv6_2_mbox_conf_perm"
  type: "Permute"
  bottom: "conv6_2_mbox_conf"
  top: "conv6_2_mbox_conf_perm"
  permute_param {
    order: 0
    order: 2
    order: 3
    order: 1
  }
}
layer {
  name: "conv6_2_mbox_conf_flat"
  type: "Flatten"
  bottom: "conv6_2_mbox_conf_perm"
  top: "conv6_2_mbox_conf_flat"
  flatten_param {
    axis: 1
  }
}
layer {
  name: "conv6_2_mbox_priorbox"
  type: "PriorBox"
  bottom: "conv6_2"
  bottom: "data"
  top: "conv6_2_mbox_priorbox"
  prior_box_param {
    min_size: 111
    max_size: 162
    aspect_ratio: 2
    aspect_ratio: 3
    flip: true
    clip: false
    variance: 0.1
    variance: 0.1
    variance: 0.2
    variance: 0.2
    step: 32
    offset: 0.5
  }
}
layer {
  name: "conv7_2_mbox_loc"
  type: "Convolution"
  bottom: "conv7_2"
  top: "conv7_2_mbox_loc"
  param {
    lr_mult: 1
    decay_mult: 1
  }
  param {
    lr_mult: 2
    decay_mult: 0
  }
  convolution_param {
    num_output: 24
    pad: 1
    kernel_size: 3
    stride: 1
    weight_filler {
      type: "xavier"
    }
    bias_filler {
      type: "constant"
      value: 0
    }
  }
}
layer {
  name: "conv7_2_mbox_loc_perm"
  type: "Permute"
  bottom: "conv7_2_mbox_loc"
  top: "conv7_2_mbox_loc_perm"
  permute_param {
    order: 0
    order: 2
    order: 3
    order: 1
  }
}
layer {
  name: "conv7_2_mbox_loc_flat"
  type: "Flatten"
  bottom: "conv7_2_mbox_loc_perm"
  top: "conv7_2_mbox_loc_flat"
  flatten_param {
    axis: 1
  }
}
layer {
  name: "conv7_2_mbox_conf"
  type: "Convolution"
  bottom: "conv7_2"
  top: "conv7_2_mbox_conf"
  param {
    lr_mult: 1
    decay_mult: 1
  }
  param {
    lr_mult: 2
    decay_mult: 0
  }
  convolution_param {
    num_output: 12
    pad: 1
    kernel_size: 3
    stride: 1
    weight_filler {
      type: "xavier"
    }
    bias_filler {
      type: "constant"
      value: 0
    }
  }
}
layer {
  name: "conv7_2_mbox_conf_perm"
  type: "Permute"
  bottom: "conv7_2_mbox_conf"
  top: "conv7_2_mbox_conf_perm"
  permute_param {
    order: 0
    order: 2
    order: 3
    order: 1
  }
}
layer {
  name: "conv7_2_mbox_conf_flat"
  type: "Flatten"
  bottom: "conv7_2_mbox_conf_perm"
  top: "conv7_2_mbox_conf_flat"
  flatten_param {
    axis: 1
  }
}
layer {
  name: "conv7_2_mbox_priorbox"
  type: "PriorBox"
  bottom: "conv7_2"
  bottom: "data"
  top: "conv7_2_mbox_priorbox"
  prior_box_param {
    min_size: 162
    max_size: 213
    aspect_ratio: 2
    aspect_ratio: 3
    flip: true
    clip: false
    variance: 0.1
    variance: 0.1
    variance: 0.2
    variance: 0.2
    step: 64
    offset: 0.5
  }
}
layer {
  name: "conv8_2_mbox_loc"
  type: "Convolution"
  bottom: "conv8_2"
  top: "conv8_2_mbox_loc"
  param {
    lr_mult: 1
    decay_mult: 1
  }
  param {
    lr_mult: 2
    decay_mult: 0
  }
  convolution_param {
    num_output: 16
    pad: 1
    kernel_size: 3
    stride: 1
    weight_filler {
      type: "xavier"
    }
    bias_filler {
      type: "constant"
      value: 0
    }
  }
}
layer {
  name: "conv8_2_mbox_loc_perm"
  type: "Permute"
  bottom: "conv8_2_mbox_loc"
  top: "conv8_2_mbox_loc_perm"
  permute_param {
    order: 0
    order: 2
    order: 3
    order: 1
  }
}
layer {
  name: "conv8_2_mbox_loc_flat"
  type: "Flatten"
  bottom: "conv8_2_mbox_loc_perm"
  top: "conv8_2_mbox_loc_flat"
  flatten_param {
    axis: 1
  }
}
layer {
  name: "conv8_2_mbox_conf"
  type: "Convolution"
  bottom: "conv8_2"
  top: "conv8_2_mbox_conf"
  param {
    lr_mult: 1
    decay_mult: 1
  }
  param {
    lr_mult: 2
    decay_mult: 0
  }
  convolution_param {
    num_output: 8
    pad: 1
    kernel_size: 3
    stride: 1
    weight_filler {
      type: "xavier"
    }
    bias_filler {
      type: "constant"
      value: 0
    }
  }
}
layer {
  name: "conv8_2_mbox_conf_perm"
  type: "Permute"
  bottom: "conv8_2_mbox_conf"
  top: "conv8_2_mbox_conf_perm"
  permute_param {
    order: 0
    order: 2
    order: 3
    order: 1
  }
}
layer {
  name: "conv8_2_mbox_conf_flat"
  type: "Flatten"
  bottom: "conv8_2_mbox_conf_perm"
  top: "conv8_2_mbox_conf_flat"
  flatten_param {
    axis: 1
  }
}
layer {
  name: "conv8_2_mbox_priorbox"
  type: "PriorBox"
  bottom: "conv8_2"
  bottom: "data"
  top: "conv8_2_mbox_priorbox"
  prior_box_param {
    min_size: 213
    max_size: 264
    aspect_ratio: 2
    flip: true
    clip: false
    variance: 0.1
    variance: 0.1
    variance: 0.2
    variance: 0.2
    step: 100
    offset: 0.5
  }
}
layer {
  name: "conv9_2_mbox_loc"
  type: "Convolution"
  bottom: "conv9_2"
  top: "conv9_2_mbox_loc"
  param {
    lr_mult: 1
    decay_mult: 1
  }
  param {
    lr_mult: 2
    decay_mult: 0
  }
  convolution_param {
    num_output: 16
    pad: 1
    kernel_size: 3
    stride: 1
    weight_filler {
      type: "xavier"
    }
    bias_filler {
      type: "constant"
      value: 0
    }
  }
}
layer {
  name: "conv9_2_mbox_loc_perm"
  type: "Permute"
  bottom: "conv9_2_mbox_loc"
  top: "conv9_2_mbox_loc_perm"
  permute_param {
    order: 0
    order: 2
    order: 3
    order: 1
  }
}
layer {
  name: "conv9_2_mbox_loc_flat"
  type: "Flatten"
  bottom: "conv9_2_mbox_loc_perm"
  top: "conv9_2_mbox_loc_flat"
  flatten_param {
    axis: 1
  }
}
layer {
  name: "conv9_2_mbox_conf"
  type: "Convolution"
  bottom: "conv9_2"
  top: "conv9_2_mbox_conf"
  param {
    lr_mult: 1
    decay_mult: 1
  }
  param {
    lr_mult: 2
    decay_mult: 0
  }
  convolution_param {
    num_output: 8
    pad: 1
    kernel_size: 3
    stride: 1
    weight_filler {
      type: "xavier"
    }
    bias_filler {
      type: "constant"
      value: 0
    }
  }
}
layer {
  name: "conv9_2_mbox_conf_perm"
  type: "Permute"
  bottom: "conv9_2_mbox_conf"
  top: "conv9_2_mbox_conf_perm"
  permute_param {
    order: 0
    order: 2
    order: 3
    order: 1
  }
}
layer {
  name: "conv9_2_mbox_conf_flat"
  type: "Flatten"
  bottom: "conv9_2_mbox_conf_perm"
  top: "conv9_2_mbox_conf_flat"
  flatten_param {
    axis: 1
  }
}
layer {
  name: "conv9_2_mbox_priorbox"
  type: "PriorBox"
  bottom: "conv9_2"
  bottom: "data"
  top: "conv9_2_mbox_priorbox"
  prior_box_param {
    min_size: 264
    max_size: 315
    aspect_ratio: 2
    flip: true
    clip: false
    variance: 0.1
    variance: 0.1
    variance: 0.2
    variance: 0.2
    step: 300
    offset: 0.5
  }
}
layer {
  name: "mbox_loc"
  type: "Concat"
  bottom: "conv4_3_norm_mbox_loc_flat"
  bottom: "fc7_mbox_loc_flat"
  bottom: "conv6_2_mbox_loc_flat"
  bottom: "conv7_2_mbox_loc_flat"
  bottom: "conv8_2_mbox_loc_flat"
  bottom: "conv9_2_mbox_loc_flat"
  top: "mbox_loc"
  concat_param {
    axis: 1
  }
}
layer {
  name: "mbox_conf"
  type: "Concat"
  bottom: "conv4_3_norm_mbox_conf_flat"
  bottom: "fc7_mbox_conf_flat"
  bottom: "conv6_2_mbox_conf_flat"
  bottom: "conv7_2_mbox_conf_flat"
  bottom: "conv8_2_mbox_conf_flat"
  bottom: "conv9_2_mbox_conf_flat"
  top: "mbox_conf"
  concat_param {
    axis: 1
  }
}
layer {
  name: "mbox_priorbox"
  type: "Concat"
  bottom: "conv4_3_norm_mbox_priorbox"
  bottom: "fc7_mbox_priorbox"
  bottom: "conv6_2_mbox_priorbox"
  bottom: "conv7_2_mbox_priorbox"
  bottom: "conv8_2_mbox_priorbox"
  bottom: "conv9_2_mbox_priorbox"
  top: "mbox_priorbox"
  concat_param {
    axis: 2
  }
}
layer {
  name: "mbox_conf_reshape"
  type: "Reshape"
  bottom: "mbox_conf"
  top: "mbox_conf_reshape"
  reshape_param {
    shape {
      dim: 0
      dim: -1
      dim: 2
    }
  }
}
layer {
  name: "mbox_conf_softmax"
  type: "Softmax"
  bottom: "mbox_conf_reshape"
  top: "mbox_conf_softmax"
  softmax_param {
    axis: 2
  }
}
layer {
  name: "mbox_conf_flatten"
  type: "Flatten"
  bottom: "mbox_conf_softmax"
  top: "mbox_conf_flatten"
  flatten_param {
    axis: 1
  }
}
layer {
  name: "detection_out"
  type: "DetectionOutput"
  bottom: "mbox_loc"
  bottom: "mbox_conf_flatten"
  bottom: "mbox_priorbox"
  top: "detection_out"
  include {
    phase: TEST
  }
  detection_output_param {
    num_classes: 2
    share_location: true
    background_label_id: 0
    nms_param {
      nms_threshold: 0.45
      top_k: 400
    }
    save_output_param {
      output_directory: "/home/wangyuzhuo/data/VOCdevkit/results/VOC2007/SSD_300x300/Main"
      output_name_prefix: "comp4_det_test_"
      output_format: "VOC"
      label_map_file: "data/chn/labelmap_voc.prototxt"
      name_size_file: "data/chn/test_name_size.txt"
      num_test_image: 100
    }
    code_type: CENTER_SIZE
    keep_top_k: 200
    confidence_threshold: 0.01
  }
}
layer {
  name: "detection_eval"
  type: "DetectionEvaluate"
  bottom: "detection_out"
  bottom: "label"
  top: "detection_eval"
  include {
    phase: TEST
  }
  detection_evaluate_param {
    num_classes: 2
    background_label_id: 0
    overlap_threshold: 0.5
    evaluate_difficult_gt: false
    name_size_file: "data/chn/test_name_size.txt"
  }
}
I0308 15:00:49.661147 242848 layer_factory.hpp:77] Creating layer data
I0308 15:00:49.661254 242848 net.cpp:100] Creating Layer data
I0308 15:00:49.661273 242848 net.cpp:408] data -> data
I0308 15:00:49.661298 242848 net.cpp:408] data -> label
I0308 15:00:49.664244 242870 db_lmdb.cpp:35] Opened lmdb examples/chn/chn_test_lmdb
I0308 15:00:49.682432 242848 annotated_data_layer.cpp:62] output data size: 8,3,300,300
I0308 15:00:49.707581 242848 net.cpp:150] Setting up data
I0308 15:00:49.707631 242848 net.cpp:157] Top shape: 8 3 300 300 (2160000)
I0308 15:00:49.707645 242848 net.cpp:157] Top shape: 1 1 37 8 (296)
I0308 15:00:49.707661 242848 net.cpp:165] Memory required for data: 8641184
I0308 15:00:49.707690 242848 layer_factory.hpp:77] Creating layer data_data_0_split
I0308 15:00:49.707722 242848 net.cpp:100] Creating Layer data_data_0_split
I0308 15:00:49.707734 242848 net.cpp:434] data_data_0_split <- data
I0308 15:00:49.707761 242848 net.cpp:408] data_data_0_split -> data_data_0_split_0
I0308 15:00:49.707788 242848 net.cpp:408] data_data_0_split -> data_data_0_split_1
I0308 15:00:49.707803 242848 net.cpp:408] data_data_0_split -> data_data_0_split_2
I0308 15:00:49.707820 242848 net.cpp:408] data_data_0_split -> data_data_0_split_3
I0308 15:00:49.707867 242848 net.cpp:408] data_data_0_split -> data_data_0_split_4
I0308 15:00:49.707885 242848 net.cpp:408] data_data_0_split -> data_data_0_split_5
I0308 15:00:49.707898 242848 net.cpp:408] data_data_0_split -> data_data_0_split_6
I0308 15:00:49.708163 242848 net.cpp:150] Setting up data_data_0_split
I0308 15:00:49.708179 242848 net.cpp:157] Top shape: 8 3 300 300 (2160000)
I0308 15:00:49.708191 242848 net.cpp:157] Top shape: 8 3 300 300 (2160000)
I0308 15:00:49.708202 242848 net.cpp:157] Top shape: 8 3 300 300 (2160000)
I0308 15:00:49.708214 242848 net.cpp:157] Top shape: 8 3 300 300 (2160000)
I0308 15:00:49.708225 242848 net.cpp:157] Top shape: 8 3 300 300 (2160000)
I0308 15:00:49.708235 242848 net.cpp:157] Top shape: 8 3 300 300 (2160000)
I0308 15:00:49.708247 242848 net.cpp:157] Top shape: 8 3 300 300 (2160000)
I0308 15:00:49.708256 242848 net.cpp:165] Memory required for data: 69121184
I0308 15:00:49.708264 242848 layer_factory.hpp:77] Creating layer conv1_1
I0308 15:00:49.708293 242848 net.cpp:100] Creating Layer conv1_1
I0308 15:00:49.708303 242848 net.cpp:434] conv1_1 <- data_data_0_split_0
I0308 15:00:49.708318 242848 net.cpp:408] conv1_1 -> conv1_1
I0308 15:00:49.710927 242848 net.cpp:150] Setting up conv1_1
I0308 15:00:49.710953 242848 net.cpp:157] Top shape: 8 64 300 300 (46080000)
I0308 15:00:49.710964 242848 net.cpp:165] Memory required for data: 253441184
I0308 15:00:49.710989 242848 layer_factory.hpp:77] Creating layer relu1_1
I0308 15:00:49.711004 242848 net.cpp:100] Creating Layer relu1_1
I0308 15:00:49.711014 242848 net.cpp:434] relu1_1 <- conv1_1
I0308 15:00:49.711027 242848 net.cpp:395] relu1_1 -> conv1_1 (in-place)
I0308 15:00:49.711371 242848 net.cpp:150] Setting up relu1_1
I0308 15:00:49.711390 242848 net.cpp:157] Top shape: 8 64 300 300 (46080000)
I0308 15:00:49.711400 242848 net.cpp:165] Memory required for data: 437761184
I0308 15:00:49.711410 242848 layer_factory.hpp:77] Creating layer conv1_2
I0308 15:00:49.711431 242848 net.cpp:100] Creating Layer conv1_2
I0308 15:00:49.711441 242848 net.cpp:434] conv1_2 <- conv1_1
I0308 15:00:49.711457 242848 net.cpp:408] conv1_2 -> conv1_2
I0308 15:00:49.716603 242848 net.cpp:150] Setting up conv1_2
I0308 15:00:49.716629 242848 net.cpp:157] Top shape: 8 64 300 300 (46080000)
I0308 15:00:49.716650 242848 net.cpp:165] Memory required for data: 622081184
I0308 15:00:49.716681 242848 layer_factory.hpp:77] Creating layer relu1_2
I0308 15:00:49.716696 242848 net.cpp:100] Creating Layer relu1_2
I0308 15:00:49.716704 242848 net.cpp:434] relu1_2 <- conv1_2
I0308 15:00:49.716717 242848 net.cpp:395] relu1_2 -> conv1_2 (in-place)
I0308 15:00:49.717061 242848 net.cpp:150] Setting up relu1_2
I0308 15:00:49.717082 242848 net.cpp:157] Top shape: 8 64 300 300 (46080000)
I0308 15:00:49.717090 242848 net.cpp:165] Memory required for data: 806401184
I0308 15:00:49.717102 242848 layer_factory.hpp:77] Creating layer pool1
I0308 15:00:49.717118 242848 net.cpp:100] Creating Layer pool1
I0308 15:00:49.717128 242848 net.cpp:434] pool1 <- conv1_2
I0308 15:00:49.717140 242848 net.cpp:408] pool1 -> pool1
I0308 15:00:49.717232 242848 net.cpp:150] Setting up pool1
I0308 15:00:49.717247 242848 net.cpp:157] Top shape: 8 64 150 150 (11520000)
I0308 15:00:49.717257 242848 net.cpp:165] Memory required for data: 852481184
I0308 15:00:49.717264 242848 layer_factory.hpp:77] Creating layer conv2_1
I0308 15:00:49.717283 242848 net.cpp:100] Creating Layer conv2_1
I0308 15:00:49.717293 242848 net.cpp:434] conv2_1 <- pool1
I0308 15:00:49.717308 242848 net.cpp:408] conv2_1 -> conv2_1
I0308 15:00:49.721110 242848 net.cpp:150] Setting up conv2_1
I0308 15:00:49.721135 242848 net.cpp:157] Top shape: 8 128 150 150 (23040000)
I0308 15:00:49.721155 242848 net.cpp:165] Memory required for data: 944641184
I0308 15:00:49.721176 242848 layer_factory.hpp:77] Creating layer relu2_1
I0308 15:00:49.721192 242848 net.cpp:100] Creating Layer relu2_1
I0308 15:00:49.721202 242848 net.cpp:434] relu2_1 <- conv2_1
I0308 15:00:49.721215 242848 net.cpp:395] relu2_1 -> conv2_1 (in-place)
I0308 15:00:49.722236 242848 net.cpp:150] Setting up relu2_1
I0308 15:00:49.722261 242848 net.cpp:157] Top shape: 8 128 150 150 (23040000)
I0308 15:00:49.722270 242848 net.cpp:165] Memory required for data: 1036801184
I0308 15:00:49.722281 242848 layer_factory.hpp:77] Creating layer conv2_2
I0308 15:00:49.722301 242848 net.cpp:100] Creating Layer conv2_2
I0308 15:00:49.722312 242848 net.cpp:434] conv2_2 <- conv2_1
I0308 15:00:49.722327 242848 net.cpp:408] conv2_2 -> conv2_2
I0308 15:00:49.728279 242848 net.cpp:150] Setting up conv2_2
I0308 15:00:49.728304 242848 net.cpp:157] Top shape: 8 128 150 150 (23040000)
I0308 15:00:49.728322 242848 net.cpp:165] Memory required for data: 1128961184
I0308 15:00:49.728348 242848 layer_factory.hpp:77] Creating layer relu2_2
I0308 15:00:49.728364 242848 net.cpp:100] Creating Layer relu2_2
I0308 15:00:49.728379 242848 net.cpp:434] relu2_2 <- conv2_2
I0308 15:00:49.728399 242848 net.cpp:395] relu2_2 -> conv2_2 (in-place)
I0308 15:00:49.728745 242848 net.cpp:150] Setting up relu2_2
I0308 15:00:49.728765 242848 net.cpp:157] Top shape: 8 128 150 150 (23040000)
I0308 15:00:49.728775 242848 net.cpp:165] Memory required for data: 1221121184
I0308 15:00:49.728785 242848 layer_factory.hpp:77] Creating layer pool2
I0308 15:00:49.728799 242848 net.cpp:100] Creating Layer pool2
I0308 15:00:49.728808 242848 net.cpp:434] pool2 <- conv2_2
I0308 15:00:49.728821 242848 net.cpp:408] pool2 -> pool2
I0308 15:00:49.728914 242848 net.cpp:150] Setting up pool2
I0308 15:00:49.728929 242848 net.cpp:157] Top shape: 8 128 75 75 (5760000)
I0308 15:00:49.728937 242848 net.cpp:165] Memory required for data: 1244161184
I0308 15:00:49.728946 242848 layer_factory.hpp:77] Creating layer conv3_1
I0308 15:00:49.728972 242848 net.cpp:100] Creating Layer conv3_1
I0308 15:00:49.728983 242848 net.cpp:434] conv3_1 <- pool2
I0308 15:00:49.728997 242848 net.cpp:408] conv3_1 -> conv3_1
I0308 15:00:49.739925 242848 net.cpp:150] Setting up conv3_1
I0308 15:00:49.739950 242848 net.cpp:157] Top shape: 8 256 75 75 (11520000)
I0308 15:00:49.739969 242848 net.cpp:165] Memory required for data: 1290241184
I0308 15:00:49.740000 242848 layer_factory.hpp:77] Creating layer relu3_1
I0308 15:00:49.740015 242848 net.cpp:100] Creating Layer relu3_1
I0308 15:00:49.740028 242848 net.cpp:434] relu3_1 <- conv3_1
I0308 15:00:49.740051 242848 net.cpp:395] relu3_1 -> conv3_1 (in-place)
I0308 15:00:49.740401 242848 net.cpp:150] Setting up relu3_1
I0308 15:00:49.740422 242848 net.cpp:157] Top shape: 8 256 75 75 (11520000)
I0308 15:00:49.740430 242848 net.cpp:165] Memory required for data: 1336321184
I0308 15:00:49.740440 242848 layer_factory.hpp:77] Creating layer conv3_2
I0308 15:00:49.740460 242848 net.cpp:100] Creating Layer conv3_2
I0308 15:00:49.740470 242848 net.cpp:434] conv3_2 <- conv3_1
I0308 15:00:49.740485 242848 net.cpp:408] conv3_2 -> conv3_2
I0308 15:00:49.757695 242848 net.cpp:150] Setting up conv3_2
I0308 15:00:49.757725 242848 net.cpp:157] Top shape: 8 256 75 75 (11520000)
I0308 15:00:49.757743 242848 net.cpp:165] Memory required for data: 1382401184
I0308 15:00:49.757769 242848 layer_factory.hpp:77] Creating layer relu3_2
I0308 15:00:49.757793 242848 net.cpp:100] Creating Layer relu3_2
I0308 15:00:49.757807 242848 net.cpp:434] relu3_2 <- conv3_2
I0308 15:00:49.757829 242848 net.cpp:395] relu3_2 -> conv3_2 (in-place)
I0308 15:00:49.758182 242848 net.cpp:150] Setting up relu3_2
I0308 15:00:49.758200 242848 net.cpp:157] Top shape: 8 256 75 75 (11520000)
I0308 15:00:49.758209 242848 net.cpp:165] Memory required for data: 1428481184
I0308 15:00:49.758220 242848 layer_factory.hpp:77] Creating layer conv3_3
I0308 15:00:49.758244 242848 net.cpp:100] Creating Layer conv3_3
I0308 15:00:49.758254 242848 net.cpp:434] conv3_3 <- conv3_2
I0308 15:00:49.758268 242848 net.cpp:408] conv3_3 -> conv3_3
I0308 15:00:49.776234 242848 net.cpp:150] Setting up conv3_3
I0308 15:00:49.776263 242848 net.cpp:157] Top shape: 8 256 75 75 (11520000)
I0308 15:00:49.776283 242848 net.cpp:165] Memory required for data: 1474561184
I0308 15:00:49.776309 242848 layer_factory.hpp:77] Creating layer relu3_3
I0308 15:00:49.776345 242848 net.cpp:100] Creating Layer relu3_3
I0308 15:00:49.776358 242848 net.cpp:434] relu3_3 <- conv3_3
I0308 15:00:49.776379 242848 net.cpp:395] relu3_3 -> conv3_3 (in-place)
I0308 15:00:49.776764 242848 net.cpp:150] Setting up relu3_3
I0308 15:00:49.776784 242848 net.cpp:157] Top shape: 8 256 75 75 (11520000)
I0308 15:00:49.776794 242848 net.cpp:165] Memory required for data: 1520641184
I0308 15:00:49.776804 242848 layer_factory.hpp:77] Creating layer pool3
I0308 15:00:49.776823 242848 net.cpp:100] Creating Layer pool3
I0308 15:00:49.776832 242848 net.cpp:434] pool3 <- conv3_3
I0308 15:00:49.776844 242848 net.cpp:408] pool3 -> pool3
I0308 15:00:49.776947 242848 net.cpp:150] Setting up pool3
I0308 15:00:49.776973 242848 net.cpp:157] Top shape: 8 256 38 38 (2957312)
I0308 15:00:49.776983 242848 net.cpp:165] Memory required for data: 1532470432
I0308 15:00:49.776990 242848 layer_factory.hpp:77] Creating layer conv4_1
I0308 15:00:49.777014 242848 net.cpp:100] Creating Layer conv4_1
I0308 15:00:49.777025 242848 net.cpp:434] conv4_1 <- pool3
I0308 15:00:49.777042 242848 net.cpp:408] conv4_1 -> conv4_1
I0308 15:00:49.810156 242848 net.cpp:150] Setting up conv4_1
I0308 15:00:49.810185 242848 net.cpp:157] Top shape: 8 512 38 38 (5914624)
I0308 15:00:49.810201 242848 net.cpp:165] Memory required for data: 1556128928
I0308 15:00:49.810226 242848 layer_factory.hpp:77] Creating layer relu4_1
I0308 15:00:49.810243 242848 net.cpp:100] Creating Layer relu4_1
I0308 15:00:49.810257 242848 net.cpp:434] relu4_1 <- conv4_1
I0308 15:00:49.810278 242848 net.cpp:395] relu4_1 -> conv4_1 (in-place)
I0308 15:00:49.810672 242848 net.cpp:150] Setting up relu4_1
I0308 15:00:49.810690 242848 net.cpp:157] Top shape: 8 512 38 38 (5914624)
I0308 15:00:49.810700 242848 net.cpp:165] Memory required for data: 1579787424
I0308 15:00:49.810710 242848 layer_factory.hpp:77] Creating layer conv4_2
I0308 15:00:49.810732 242848 net.cpp:100] Creating Layer conv4_2
I0308 15:00:49.810742 242848 net.cpp:434] conv4_2 <- conv4_1
I0308 15:00:49.810762 242848 net.cpp:408] conv4_2 -> conv4_2
I0308 15:00:49.872486 242848 net.cpp:150] Setting up conv4_2
I0308 15:00:49.872520 242848 net.cpp:157] Top shape: 8 512 38 38 (5914624)
I0308 15:00:49.872540 242848 net.cpp:165] Memory required for data: 1603445920
I0308 15:00:49.872580 242848 layer_factory.hpp:77] Creating layer relu4_2
I0308 15:00:49.872597 242848 net.cpp:100] Creating Layer relu4_2
I0308 15:00:49.872611 242848 net.cpp:434] relu4_2 <- conv4_2
I0308 15:00:49.872632 242848 net.cpp:395] relu4_2 -> conv4_2 (in-place)
I0308 15:00:49.873739 242848 net.cpp:150] Setting up relu4_2
I0308 15:00:49.873764 242848 net.cpp:157] Top shape: 8 512 38 38 (5914624)
I0308 15:00:49.873780 242848 net.cpp:165] Memory required for data: 1627104416
I0308 15:00:49.873790 242848 layer_factory.hpp:77] Creating layer conv4_3
I0308 15:00:49.873816 242848 net.cpp:100] Creating Layer conv4_3
I0308 15:00:49.873826 242848 net.cpp:434] conv4_3 <- conv4_2
I0308 15:00:49.873844 242848 net.cpp:408] conv4_3 -> conv4_3
I0308 15:00:49.935261 242848 net.cpp:150] Setting up conv4_3
I0308 15:00:49.935297 242848 net.cpp:157] Top shape: 8 512 38 38 (5914624)
I0308 15:00:49.935307 242848 net.cpp:165] Memory required for data: 1650762912
I0308 15:00:49.935335 242848 layer_factory.hpp:77] Creating layer relu4_3
I0308 15:00:49.935355 242848 net.cpp:100] Creating Layer relu4_3
I0308 15:00:49.935367 242848 net.cpp:434] relu4_3 <- conv4_3
I0308 15:00:49.935389 242848 net.cpp:395] relu4_3 -> conv4_3 (in-place)
I0308 15:00:49.935768 242848 net.cpp:150] Setting up relu4_3
I0308 15:00:49.935787 242848 net.cpp:157] Top shape: 8 512 38 38 (5914624)
I0308 15:00:49.935797 242848 net.cpp:165] Memory required for data: 1674421408
I0308 15:00:49.935807 242848 layer_factory.hpp:77] Creating layer conv4_3_relu4_3_0_split
I0308 15:00:49.935822 242848 net.cpp:100] Creating Layer conv4_3_relu4_3_0_split
I0308 15:00:49.935832 242848 net.cpp:434] conv4_3_relu4_3_0_split <- conv4_3
I0308 15:00:49.935848 242848 net.cpp:408] conv4_3_relu4_3_0_split -> conv4_3_relu4_3_0_split_0
I0308 15:00:49.935889 242848 net.cpp:408] conv4_3_relu4_3_0_split -> conv4_3_relu4_3_0_split_1
I0308 15:00:49.935993 242848 net.cpp:150] Setting up conv4_3_relu4_3_0_split
I0308 15:00:49.936009 242848 net.cpp:157] Top shape: 8 512 38 38 (5914624)
I0308 15:00:49.936020 242848 net.cpp:157] Top shape: 8 512 38 38 (5914624)
I0308 15:00:49.936029 242848 net.cpp:165] Memory required for data: 1721738400
I0308 15:00:49.936038 242848 layer_factory.hpp:77] Creating layer pool4
I0308 15:00:49.936055 242848 net.cpp:100] Creating Layer pool4
I0308 15:00:49.936064 242848 net.cpp:434] pool4 <- conv4_3_relu4_3_0_split_0
I0308 15:00:49.936080 242848 net.cpp:408] pool4 -> pool4
I0308 15:00:49.936172 242848 net.cpp:150] Setting up pool4
I0308 15:00:49.936187 242848 net.cpp:157] Top shape: 8 512 19 19 (1478656)
I0308 15:00:49.936195 242848 net.cpp:165] Memory required for data: 1727653024
I0308 15:00:49.936204 242848 layer_factory.hpp:77] Creating layer conv5_1
I0308 15:00:49.936226 242848 net.cpp:100] Creating Layer conv5_1
I0308 15:00:49.936236 242848 net.cpp:434] conv5_1 <- pool4
I0308 15:00:49.936254 242848 net.cpp:408] conv5_1 -> conv5_1
I0308 15:00:49.998143 242848 net.cpp:150] Setting up conv5_1
I0308 15:00:49.998191 242848 net.cpp:157] Top shape: 8 512 19 19 (1478656)
I0308 15:00:49.998200 242848 net.cpp:165] Memory required for data: 1733567648
I0308 15:00:49.998231 242848 layer_factory.hpp:77] Creating layer relu5_1
I0308 15:00:49.998252 242848 net.cpp:100] Creating Layer relu5_1
I0308 15:00:49.998265 242848 net.cpp:434] relu5_1 <- conv5_1
I0308 15:00:49.998288 242848 net.cpp:395] relu5_1 -> conv5_1 (in-place)
I0308 15:00:49.998669 242848 net.cpp:150] Setting up relu5_1
I0308 15:00:49.998689 242848 net.cpp:157] Top shape: 8 512 19 19 (1478656)
I0308 15:00:49.998703 242848 net.cpp:165] Memory required for data: 1739482272
I0308 15:00:49.998713 242848 layer_factory.hpp:77] Creating layer conv5_2
I0308 15:00:49.998740 242848 net.cpp:100] Creating Layer conv5_2
I0308 15:00:49.998751 242848 net.cpp:434] conv5_2 <- conv5_1
I0308 15:00:49.998769 242848 net.cpp:408] conv5_2 -> conv5_2
I0308 15:00:50.062131 242848 net.cpp:150] Setting up conv5_2
I0308 15:00:50.062173 242848 net.cpp:157] Top shape: 8 512 19 19 (1478656)
I0308 15:00:50.062182 242848 net.cpp:165] Memory required for data: 1745396896
I0308 15:00:50.062212 242848 layer_factory.hpp:77] Creating layer relu5_2
I0308 15:00:50.062237 242848 net.cpp:100] Creating Layer relu5_2
I0308 15:00:50.062249 242848 net.cpp:434] relu5_2 <- conv5_2
I0308 15:00:50.062270 242848 net.cpp:395] relu5_2 -> conv5_2 (in-place)
I0308 15:00:50.062664 242848 net.cpp:150] Setting up relu5_2
I0308 15:00:50.062683 242848 net.cpp:157] Top shape: 8 512 19 19 (1478656)
I0308 15:00:50.062697 242848 net.cpp:165] Memory required for data: 1751311520
I0308 15:00:50.062707 242848 layer_factory.hpp:77] Creating layer conv5_3
I0308 15:00:50.062733 242848 net.cpp:100] Creating Layer conv5_3
I0308 15:00:50.062743 242848 net.cpp:434] conv5_3 <- conv5_2
I0308 15:00:50.062762 242848 net.cpp:408] conv5_3 -> conv5_3
I0308 15:00:50.124596 242848 net.cpp:150] Setting up conv5_3
I0308 15:00:50.124639 242848 net.cpp:157] Top shape: 8 512 19 19 (1478656)
I0308 15:00:50.124647 242848 net.cpp:165] Memory required for data: 1757226144
I0308 15:00:50.124677 242848 layer_factory.hpp:77] Creating layer relu5_3
I0308 15:00:50.124711 242848 net.cpp:100] Creating Layer relu5_3
I0308 15:00:50.124723 242848 net.cpp:434] relu5_3 <- conv5_3
I0308 15:00:50.124747 242848 net.cpp:395] relu5_3 -> conv5_3 (in-place)
I0308 15:00:50.125128 242848 net.cpp:150] Setting up relu5_3
I0308 15:00:50.125149 242848 net.cpp:157] Top shape: 8 512 19 19 (1478656)
I0308 15:00:50.125166 242848 net.cpp:165] Memory required for data: 1763140768
I0308 15:00:50.125176 242848 layer_factory.hpp:77] Creating layer pool5
I0308 15:00:50.125195 242848 net.cpp:100] Creating Layer pool5
I0308 15:00:50.125205 242848 net.cpp:434] pool5 <- conv5_3
I0308 15:00:50.125218 242848 net.cpp:408] pool5 -> pool5
I0308 15:00:50.125327 242848 net.cpp:150] Setting up pool5
I0308 15:00:50.125370 242848 net.cpp:157] Top shape: 8 512 19 19 (1478656)
I0308 15:00:50.125380 242848 net.cpp:165] Memory required for data: 1769055392
I0308 15:00:50.125389 242848 layer_factory.hpp:77] Creating layer fc6
I0308 15:00:50.125416 242848 net.cpp:100] Creating Layer fc6
I0308 15:00:50.125425 242848 net.cpp:434] fc6 <- pool5
I0308 15:00:50.125443 242848 net.cpp:408] fc6 -> fc6
I0308 15:00:50.244277 242848 net.cpp:150] Setting up fc6
I0308 15:00:50.244326 242848 net.cpp:157] Top shape: 8 1024 19 19 (2957312)
I0308 15:00:50.244335 242848 net.cpp:165] Memory required for data: 1780884640
I0308 15:00:50.244365 242848 layer_factory.hpp:77] Creating layer relu6
I0308 15:00:50.244390 242848 net.cpp:100] Creating Layer relu6
I0308 15:00:50.244402 242848 net.cpp:434] relu6 <- fc6
I0308 15:00:50.244426 242848 net.cpp:395] relu6 -> fc6 (in-place)
I0308 15:00:50.245772 242848 net.cpp:150] Setting up relu6
I0308 15:00:50.245797 242848 net.cpp:157] Top shape: 8 1024 19 19 (2957312)
I0308 15:00:50.245813 242848 net.cpp:165] Memory required for data: 1792713888
I0308 15:00:50.245832 242848 layer_factory.hpp:77] Creating layer fc7
I0308 15:00:50.245862 242848 net.cpp:100] Creating Layer fc7
I0308 15:00:50.245873 242848 net.cpp:434] fc7 <- fc6
I0308 15:00:50.245888 242848 net.cpp:408] fc7 -> fc7
I0308 15:00:50.274253 242848 net.cpp:150] Setting up fc7
I0308 15:00:50.274279 242848 net.cpp:157] Top shape: 8 1024 19 19 (2957312)
I0308 15:00:50.274298 242848 net.cpp:165] Memory required for data: 1804543136
I0308 15:00:50.274324 242848 layer_factory.hpp:77] Creating layer relu7
I0308 15:00:50.274339 242848 net.cpp:100] Creating Layer relu7
I0308 15:00:50.274355 242848 net.cpp:434] relu7 <- fc7
I0308 15:00:50.274380 242848 net.cpp:395] relu7 -> fc7 (in-place)
I0308 15:00:50.275516 242848 net.cpp:150] Setting up relu7
I0308 15:00:50.275542 242848 net.cpp:157] Top shape: 8 1024 19 19 (2957312)
I0308 15:00:50.275554 242848 net.cpp:165] Memory required for data: 1816372384
I0308 15:00:50.275564 242848 layer_factory.hpp:77] Creating layer fc7_relu7_0_split
I0308 15:00:50.275583 242848 net.cpp:100] Creating Layer fc7_relu7_0_split
I0308 15:00:50.275593 242848 net.cpp:434] fc7_relu7_0_split <- fc7
I0308 15:00:50.275605 242848 net.cpp:408] fc7_relu7_0_split -> fc7_relu7_0_split_0
I0308 15:00:50.275621 242848 net.cpp:408] fc7_relu7_0_split -> fc7_relu7_0_split_1
I0308 15:00:50.275647 242848 net.cpp:408] fc7_relu7_0_split -> fc7_relu7_0_split_2
I0308 15:00:50.275661 242848 net.cpp:408] fc7_relu7_0_split -> fc7_relu7_0_split_3
I0308 15:00:50.275827 242848 net.cpp:150] Setting up fc7_relu7_0_split
I0308 15:00:50.275843 242848 net.cpp:157] Top shape: 8 1024 19 19 (2957312)
I0308 15:00:50.275858 242848 net.cpp:157] Top shape: 8 1024 19 19 (2957312)
I0308 15:00:50.275871 242848 net.cpp:157] Top shape: 8 1024 19 19 (2957312)
I0308 15:00:50.275882 242848 net.cpp:157] Top shape: 8 1024 19 19 (2957312)
I0308 15:00:50.275890 242848 net.cpp:165] Memory required for data: 1863689376
I0308 15:00:50.275899 242848 layer_factory.hpp:77] Creating layer conv6_1
I0308 15:00:50.275921 242848 net.cpp:100] Creating Layer conv6_1
I0308 15:00:50.275931 242848 net.cpp:434] conv6_1 <- fc7_relu7_0_split_0
I0308 15:00:50.275948 242848 net.cpp:408] conv6_1 -> conv6_1
I0308 15:00:50.294996 242848 net.cpp:150] Setting up conv6_1
I0308 15:00:50.295040 242848 net.cpp:157] Top shape: 8 256 19 19 (739328)
I0308 15:00:50.295058 242848 net.cpp:165] Memory required for data: 1866646688
I0308 15:00:50.295089 242848 layer_factory.hpp:77] Creating layer conv6_1_relu
I0308 15:00:50.295112 242848 net.cpp:100] Creating Layer conv6_1_relu
I0308 15:00:50.295130 242848 net.cpp:434] conv6_1_relu <- conv6_1
I0308 15:00:50.295152 242848 net.cpp:395] conv6_1_relu -> conv6_1 (in-place)
I0308 15:00:50.295779 242848 net.cpp:150] Setting up conv6_1_relu
I0308 15:00:50.295809 242848 net.cpp:157] Top shape: 8 256 19 19 (739328)
I0308 15:00:50.295824 242848 net.cpp:165] Memory required for data: 1869604000
I0308 15:00:50.295840 242848 layer_factory.hpp:77] Creating layer conv6_2
I0308 15:00:50.295912 242848 net.cpp:100] Creating Layer conv6_2
I0308 15:00:50.295930 242848 net.cpp:434] conv6_2 <- conv6_1
I0308 15:00:50.295958 242848 net.cpp:408] conv6_2 -> conv6_2
I0308 15:00:50.344323 242848 net.cpp:150] Setting up conv6_2
I0308 15:00:50.344359 242848 net.cpp:157] Top shape: 8 512 10 10 (409600)
I0308 15:00:50.344379 242848 net.cpp:165] Memory required for data: 1871242400
I0308 15:00:50.344424 242848 layer_factory.hpp:77] Creating layer conv6_2_relu
I0308 15:00:50.344444 242848 net.cpp:100] Creating Layer conv6_2_relu
I0308 15:00:50.344457 242848 net.cpp:434] conv6_2_relu <- conv6_2
I0308 15:00:50.344485 242848 net.cpp:395] conv6_2_relu -> conv6_2 (in-place)
I0308 15:00:50.344970 242848 net.cpp:150] Setting up conv6_2_relu
I0308 15:00:50.344995 242848 net.cpp:157] Top shape: 8 512 10 10 (409600)
I0308 15:00:50.345005 242848 net.cpp:165] Memory required for data: 1872880800
I0308 15:00:50.345017 242848 layer_factory.hpp:77] Creating layer conv6_2_conv6_2_relu_0_split
I0308 15:00:50.345038 242848 net.cpp:100] Creating Layer conv6_2_conv6_2_relu_0_split
I0308 15:00:50.345051 242848 net.cpp:434] conv6_2_conv6_2_relu_0_split <- conv6_2
I0308 15:00:50.345067 242848 net.cpp:408] conv6_2_conv6_2_relu_0_split -> conv6_2_conv6_2_relu_0_split_0
I0308 15:00:50.345087 242848 net.cpp:408] conv6_2_conv6_2_relu_0_split -> conv6_2_conv6_2_relu_0_split_1
I0308 15:00:50.345108 242848 net.cpp:408] conv6_2_conv6_2_relu_0_split -> conv6_2_conv6_2_relu_0_split_2
I0308 15:00:50.345125 242848 net.cpp:408] conv6_2_conv6_2_relu_0_split -> conv6_2_conv6_2_relu_0_split_3
I0308 15:00:50.345342 242848 net.cpp:150] Setting up conv6_2_conv6_2_relu_0_split
I0308 15:00:50.345360 242848 net.cpp:157] Top shape: 8 512 10 10 (409600)
I0308 15:00:50.345374 242848 net.cpp:157] Top shape: 8 512 10 10 (409600)
I0308 15:00:50.345388 242848 net.cpp:157] Top shape: 8 512 10 10 (409600)
I0308 15:00:50.345402 242848 net.cpp:157] Top shape: 8 512 10 10 (409600)
I0308 15:00:50.345413 242848 net.cpp:165] Memory required for data: 1879434400
I0308 15:00:50.345425 242848 layer_factory.hpp:77] Creating layer conv7_1
I0308 15:00:50.345451 242848 net.cpp:100] Creating Layer conv7_1
I0308 15:00:50.345464 242848 net.cpp:434] conv7_1 <- conv6_2_conv6_2_relu_0_split_0
I0308 15:00:50.345486 242848 net.cpp:408] conv7_1 -> conv7_1
I0308 15:00:50.350577 242848 net.cpp:150] Setting up conv7_1
I0308 15:00:50.350606 242848 net.cpp:157] Top shape: 8 128 10 10 (102400)
I0308 15:00:50.350623 242848 net.cpp:165] Memory required for data: 1879844000
I0308 15:00:50.350649 242848 layer_factory.hpp:77] Creating layer conv7_1_relu
I0308 15:00:50.350668 242848 net.cpp:100] Creating Layer conv7_1_relu
I0308 15:00:50.350682 242848 net.cpp:434] conv7_1_relu <- conv7_1
I0308 15:00:50.350697 242848 net.cpp:395] conv7_1_relu -> conv7_1 (in-place)
I0308 15:00:50.351146 242848 net.cpp:150] Setting up conv7_1_relu
I0308 15:00:50.351167 242848 net.cpp:157] Top shape: 8 128 10 10 (102400)
I0308 15:00:50.351178 242848 net.cpp:165] Memory required for data: 1880253600
I0308 15:00:50.351189 242848 layer_factory.hpp:77] Creating layer conv7_2
I0308 15:00:50.351217 242848 net.cpp:100] Creating Layer conv7_2
I0308 15:00:50.351228 242848 net.cpp:434] conv7_2 <- conv7_1
I0308 15:00:50.351248 242848 net.cpp:408] conv7_2 -> conv7_2
I0308 15:00:50.365905 242848 net.cpp:150] Setting up conv7_2
I0308 15:00:50.365933 242848 net.cpp:157] Top shape: 8 256 5 5 (51200)
I0308 15:00:50.365952 242848 net.cpp:165] Memory required for data: 1880458400
I0308 15:00:50.365977 242848 layer_factory.hpp:77] Creating layer conv7_2_relu
I0308 15:00:50.365996 242848 net.cpp:100] Creating Layer conv7_2_relu
I0308 15:00:50.366009 242848 net.cpp:434] conv7_2_relu <- conv7_2
I0308 15:00:50.366031 242848 net.cpp:395] conv7_2_relu -> conv7_2 (in-place)
I0308 15:00:50.366477 242848 net.cpp:150] Setting up conv7_2_relu
I0308 15:00:50.366498 242848 net.cpp:157] Top shape: 8 256 5 5 (51200)
I0308 15:00:50.366508 242848 net.cpp:165] Memory required for data: 1880663200
I0308 15:00:50.366519 242848 layer_factory.hpp:77] Creating layer conv7_2_conv7_2_relu_0_split
I0308 15:00:50.366559 242848 net.cpp:100] Creating Layer conv7_2_conv7_2_relu_0_split
I0308 15:00:50.366572 242848 net.cpp:434] conv7_2_conv7_2_relu_0_split <- conv7_2
I0308 15:00:50.366590 242848 net.cpp:408] conv7_2_conv7_2_relu_0_split -> conv7_2_conv7_2_relu_0_split_0
I0308 15:00:50.366608 242848 net.cpp:408] conv7_2_conv7_2_relu_0_split -> conv7_2_conv7_2_relu_0_split_1
I0308 15:00:50.366624 242848 net.cpp:408] conv7_2_conv7_2_relu_0_split -> conv7_2_conv7_2_relu_0_split_2
I0308 15:00:50.366641 242848 net.cpp:408] conv7_2_conv7_2_relu_0_split -> conv7_2_conv7_2_relu_0_split_3
I0308 15:00:50.366842 242848 net.cpp:150] Setting up conv7_2_conv7_2_relu_0_split
I0308 15:00:50.366859 242848 net.cpp:157] Top shape: 8 256 5 5 (51200)
I0308 15:00:50.366873 242848 net.cpp:157] Top shape: 8 256 5 5 (51200)
I0308 15:00:50.366885 242848 net.cpp:157] Top shape: 8 256 5 5 (51200)
I0308 15:00:50.366897 242848 net.cpp:157] Top shape: 8 256 5 5 (51200)
I0308 15:00:50.366907 242848 net.cpp:165] Memory required for data: 1881482400
I0308 15:00:50.366917 242848 layer_factory.hpp:77] Creating layer conv8_1
I0308 15:00:50.366943 242848 net.cpp:100] Creating Layer conv8_1
I0308 15:00:50.366955 242848 net.cpp:434] conv8_1 <- conv7_2_conv7_2_relu_0_split_0
I0308 15:00:50.366972 242848 net.cpp:408] conv8_1 -> conv8_1
I0308 15:00:50.370776 242848 net.cpp:150] Setting up conv8_1
I0308 15:00:50.370803 242848 net.cpp:157] Top shape: 8 128 5 5 (25600)
I0308 15:00:50.370820 242848 net.cpp:165] Memory required for data: 1881584800
I0308 15:00:50.370837 242848 layer_factory.hpp:77] Creating layer conv8_1_relu
I0308 15:00:50.370852 242848 net.cpp:100] Creating Layer conv8_1_relu
I0308 15:00:50.370864 242848 net.cpp:434] conv8_1_relu <- conv8_1
I0308 15:00:50.370878 242848 net.cpp:395] conv8_1_relu -> conv8_1 (in-place)
I0308 15:00:50.372217 242848 net.cpp:150] Setting up conv8_1_relu
I0308 15:00:50.372243 242848 net.cpp:157] Top shape: 8 128 5 5 (25600)
I0308 15:00:50.372254 242848 net.cpp:165] Memory required for data: 1881687200
I0308 15:00:50.372265 242848 layer_factory.hpp:77] Creating layer conv8_2
I0308 15:00:50.372290 242848 net.cpp:100] Creating Layer conv8_2
I0308 15:00:50.372303 242848 net.cpp:434] conv8_2 <- conv8_1
I0308 15:00:50.372323 242848 net.cpp:408] conv8_2 -> conv8_2
I0308 15:00:50.384666 242848 net.cpp:150] Setting up conv8_2
I0308 15:00:50.384692 242848 net.cpp:157] Top shape: 8 256 3 3 (18432)
I0308 15:00:50.384708 242848 net.cpp:165] Memory required for data: 1881760928
I0308 15:00:50.384734 242848 layer_factory.hpp:77] Creating layer conv8_2_relu
I0308 15:00:50.384754 242848 net.cpp:100] Creating Layer conv8_2_relu
I0308 15:00:50.384765 242848 net.cpp:434] conv8_2_relu <- conv8_2
I0308 15:00:50.384788 242848 net.cpp:395] conv8_2_relu -> conv8_2 (in-place)
I0308 15:00:50.386088 242848 net.cpp:150] Setting up conv8_2_relu
I0308 15:00:50.386113 242848 net.cpp:157] Top shape: 8 256 3 3 (18432)
I0308 15:00:50.386131 242848 net.cpp:165] Memory required for data: 1881834656
I0308 15:00:50.386142 242848 layer_factory.hpp:77] Creating layer conv8_2_conv8_2_relu_0_split
I0308 15:00:50.386155 242848 net.cpp:100] Creating Layer conv8_2_conv8_2_relu_0_split
I0308 15:00:50.386168 242848 net.cpp:434] conv8_2_conv8_2_relu_0_split <- conv8_2
I0308 15:00:50.386185 242848 net.cpp:408] conv8_2_conv8_2_relu_0_split -> conv8_2_conv8_2_relu_0_split_0
I0308 15:00:50.386203 242848 net.cpp:408] conv8_2_conv8_2_relu_0_split -> conv8_2_conv8_2_relu_0_split_1
I0308 15:00:50.386219 242848 net.cpp:408] conv8_2_conv8_2_relu_0_split -> conv8_2_conv8_2_relu_0_split_2
I0308 15:00:50.386232 242848 net.cpp:408] conv8_2_conv8_2_relu_0_split -> conv8_2_conv8_2_relu_0_split_3
I0308 15:00:50.386430 242848 net.cpp:150] Setting up conv8_2_conv8_2_relu_0_split
I0308 15:00:50.386445 242848 net.cpp:157] Top shape: 8 256 3 3 (18432)
I0308 15:00:50.386457 242848 net.cpp:157] Top shape: 8 256 3 3 (18432)
I0308 15:00:50.386469 242848 net.cpp:157] Top shape: 8 256 3 3 (18432)
I0308 15:00:50.386482 242848 net.cpp:157] Top shape: 8 256 3 3 (18432)
I0308 15:00:50.386512 242848 net.cpp:165] Memory required for data: 1882129568
I0308 15:00:50.386523 242848 layer_factory.hpp:77] Creating layer conv9_1
I0308 15:00:50.386551 242848 net.cpp:100] Creating Layer conv9_1
I0308 15:00:50.386562 242848 net.cpp:434] conv9_1 <- conv8_2_conv8_2_relu_0_split_0
I0308 15:00:50.386579 242848 net.cpp:408] conv9_1 -> conv9_1
I0308 15:00:50.390224 242848 net.cpp:150] Setting up conv9_1
I0308 15:00:50.390254 242848 net.cpp:157] Top shape: 8 128 3 3 (9216)
I0308 15:00:50.390267 242848 net.cpp:165] Memory required for data: 1882166432
I0308 15:00:50.390285 242848 layer_factory.hpp:77] Creating layer conv9_1_relu
I0308 15:00:50.390300 242848 net.cpp:100] Creating Layer conv9_1_relu
I0308 15:00:50.390311 242848 net.cpp:434] conv9_1_relu <- conv9_1
I0308 15:00:50.390323 242848 net.cpp:395] conv9_1_relu -> conv9_1 (in-place)
I0308 15:00:50.390749 242848 net.cpp:150] Setting up conv9_1_relu
I0308 15:00:50.390769 242848 net.cpp:157] Top shape: 8 128 3 3 (9216)
I0308 15:00:50.390779 242848 net.cpp:165] Memory required for data: 1882203296
I0308 15:00:50.390790 242848 layer_factory.hpp:77] Creating layer conv9_2
I0308 15:00:50.390812 242848 net.cpp:100] Creating Layer conv9_2
I0308 15:00:50.390825 242848 net.cpp:434] conv9_2 <- conv9_1
I0308 15:00:50.390842 242848 net.cpp:408] conv9_2 -> conv9_2
I0308 15:00:50.404047 242848 net.cpp:150] Setting up conv9_2
I0308 15:00:50.404076 242848 net.cpp:157] Top shape: 8 256 1 1 (2048)
I0308 15:00:50.404093 242848 net.cpp:165] Memory required for data: 1882211488
I0308 15:00:50.404119 242848 layer_factory.hpp:77] Creating layer conv9_2_relu
I0308 15:00:50.404134 242848 net.cpp:100] Creating Layer conv9_2_relu
I0308 15:00:50.404150 242848 net.cpp:434] conv9_2_relu <- conv9_2
I0308 15:00:50.404171 242848 net.cpp:395] conv9_2_relu -> conv9_2 (in-place)
I0308 15:00:50.404598 242848 net.cpp:150] Setting up conv9_2_relu
I0308 15:00:50.404618 242848 net.cpp:157] Top shape: 8 256 1 1 (2048)
I0308 15:00:50.404628 242848 net.cpp:165] Memory required for data: 1882219680
I0308 15:00:50.404637 242848 layer_factory.hpp:77] Creating layer conv9_2_conv9_2_relu_0_split
I0308 15:00:50.404651 242848 net.cpp:100] Creating Layer conv9_2_conv9_2_relu_0_split
I0308 15:00:50.404662 242848 net.cpp:434] conv9_2_conv9_2_relu_0_split <- conv9_2
I0308 15:00:50.404680 242848 net.cpp:408] conv9_2_conv9_2_relu_0_split -> conv9_2_conv9_2_relu_0_split_0
I0308 15:00:50.404696 242848 net.cpp:408] conv9_2_conv9_2_relu_0_split -> conv9_2_conv9_2_relu_0_split_1
I0308 15:00:50.404711 242848 net.cpp:408] conv9_2_conv9_2_relu_0_split -> conv9_2_conv9_2_relu_0_split_2
I0308 15:00:50.404863 242848 net.cpp:150] Setting up conv9_2_conv9_2_relu_0_split
I0308 15:00:50.404878 242848 net.cpp:157] Top shape: 8 256 1 1 (2048)
I0308 15:00:50.404891 242848 net.cpp:157] Top shape: 8 256 1 1 (2048)
I0308 15:00:50.404902 242848 net.cpp:157] Top shape: 8 256 1 1 (2048)
I0308 15:00:50.404911 242848 net.cpp:165] Memory required for data: 1882244256
I0308 15:00:50.404922 242848 layer_factory.hpp:77] Creating layer conv4_3_norm
I0308 15:00:50.404940 242848 net.cpp:100] Creating Layer conv4_3_norm
I0308 15:00:50.404952 242848 net.cpp:434] conv4_3_norm <- conv4_3_relu4_3_0_split_1
I0308 15:00:50.404976 242848 net.cpp:408] conv4_3_norm -> conv4_3_norm
I0308 15:00:50.405448 242848 net.cpp:150] Setting up conv4_3_norm
I0308 15:00:50.405465 242848 net.cpp:157] Top shape: 8 512 38 38 (5914624)
I0308 15:00:50.405475 242848 net.cpp:165] Memory required for data: 1905902752
I0308 15:00:50.405489 242848 layer_factory.hpp:77] Creating layer conv4_3_norm_conv4_3_norm_0_split
I0308 15:00:50.405503 242848 net.cpp:100] Creating Layer conv4_3_norm_conv4_3_norm_0_split
I0308 15:00:50.405514 242848 net.cpp:434] conv4_3_norm_conv4_3_norm_0_split <- conv4_3_norm
I0308 15:00:50.405525 242848 net.cpp:408] conv4_3_norm_conv4_3_norm_0_split -> conv4_3_norm_conv4_3_norm_0_split_0
I0308 15:00:50.405541 242848 net.cpp:408] conv4_3_norm_conv4_3_norm_0_split -> conv4_3_norm_conv4_3_norm_0_split_1
I0308 15:00:50.405555 242848 net.cpp:408] conv4_3_norm_conv4_3_norm_0_split -> conv4_3_norm_conv4_3_norm_0_split_2
I0308 15:00:50.405714 242848 net.cpp:150] Setting up conv4_3_norm_conv4_3_norm_0_split
I0308 15:00:50.405731 242848 net.cpp:157] Top shape: 8 512 38 38 (5914624)
I0308 15:00:50.405743 242848 net.cpp:157] Top shape: 8 512 38 38 (5914624)
I0308 15:00:50.405756 242848 net.cpp:157] Top shape: 8 512 38 38 (5914624)
I0308 15:00:50.405766 242848 net.cpp:165] Memory required for data: 1976878240
I0308 15:00:50.405776 242848 layer_factory.hpp:77] Creating layer conv4_3_norm_mbox_loc
I0308 15:00:50.405797 242848 net.cpp:100] Creating Layer conv4_3_norm_mbox_loc
I0308 15:00:50.405808 242848 net.cpp:434] conv4_3_norm_mbox_loc <- conv4_3_norm_conv4_3_norm_0_split_0
I0308 15:00:50.405824 242848 net.cpp:408] conv4_3_norm_mbox_loc -> conv4_3_norm_mbox_loc
I0308 15:00:50.411346 242848 net.cpp:150] Setting up conv4_3_norm_mbox_loc
I0308 15:00:50.411372 242848 net.cpp:157] Top shape: 8 16 38 38 (184832)
I0308 15:00:50.411389 242848 net.cpp:165] Memory required for data: 1977617568
I0308 15:00:50.411415 242848 layer_factory.hpp:77] Creating layer conv4_3_norm_mbox_loc_perm
I0308 15:00:50.411438 242848 net.cpp:100] Creating Layer conv4_3_norm_mbox_loc_perm
I0308 15:00:50.411449 242848 net.cpp:434] conv4_3_norm_mbox_loc_perm <- conv4_3_norm_mbox_loc
I0308 15:00:50.411463 242848 net.cpp:408] conv4_3_norm_mbox_loc_perm -> conv4_3_norm_mbox_loc_perm
I0308 15:00:50.411782 242848 net.cpp:150] Setting up conv4_3_norm_mbox_loc_perm
I0308 15:00:50.411798 242848 net.cpp:157] Top shape: 8 38 38 16 (184832)
I0308 15:00:50.411808 242848 net.cpp:165] Memory required for data: 1978356896
I0308 15:00:50.411818 242848 layer_factory.hpp:77] Creating layer conv4_3_norm_mbox_loc_flat
I0308 15:00:50.411833 242848 net.cpp:100] Creating Layer conv4_3_norm_mbox_loc_flat
I0308 15:00:50.411844 242848 net.cpp:434] conv4_3_norm_mbox_loc_flat <- conv4_3_norm_mbox_loc_perm
I0308 15:00:50.411859 242848 net.cpp:408] conv4_3_norm_mbox_loc_flat -> conv4_3_norm_mbox_loc_flat
I0308 15:00:50.411936 242848 net.cpp:150] Setting up conv4_3_norm_mbox_loc_flat
I0308 15:00:50.411950 242848 net.cpp:157] Top shape: 8 23104 (184832)
I0308 15:00:50.411960 242848 net.cpp:165] Memory required for data: 1979096224
I0308 15:00:50.411970 242848 layer_factory.hpp:77] Creating layer conv4_3_norm_mbox_conf
I0308 15:00:50.412006 242848 net.cpp:100] Creating Layer conv4_3_norm_mbox_conf
I0308 15:00:50.412017 242848 net.cpp:434] conv4_3_norm_mbox_conf <- conv4_3_norm_conv4_3_norm_0_split_1
I0308 15:00:50.412036 242848 net.cpp:408] conv4_3_norm_mbox_conf -> conv4_3_norm_mbox_conf
I0308 15:00:50.416693 242848 net.cpp:150] Setting up conv4_3_norm_mbox_conf
I0308 15:00:50.416719 242848 net.cpp:157] Top shape: 8 8 38 38 (92416)
I0308 15:00:50.416736 242848 net.cpp:165] Memory required for data: 1979465888
I0308 15:00:50.416762 242848 layer_factory.hpp:77] Creating layer conv4_3_norm_mbox_conf_perm
I0308 15:00:50.416779 242848 net.cpp:100] Creating Layer conv4_3_norm_mbox_conf_perm
I0308 15:00:50.416790 242848 net.cpp:434] conv4_3_norm_mbox_conf_perm <- conv4_3_norm_mbox_conf
I0308 15:00:50.416808 242848 net.cpp:408] conv4_3_norm_mbox_conf_perm -> conv4_3_norm_mbox_conf_perm
I0308 15:00:50.417146 242848 net.cpp:150] Setting up conv4_3_norm_mbox_conf_perm
I0308 15:00:50.417165 242848 net.cpp:157] Top shape: 8 38 38 8 (92416)
I0308 15:00:50.417173 242848 net.cpp:165] Memory required for data: 1979835552
I0308 15:00:50.417184 242848 layer_factory.hpp:77] Creating layer conv4_3_norm_mbox_conf_flat
I0308 15:00:50.417198 242848 net.cpp:100] Creating Layer conv4_3_norm_mbox_conf_flat
I0308 15:00:50.417209 242848 net.cpp:434] conv4_3_norm_mbox_conf_flat <- conv4_3_norm_mbox_conf_perm
I0308 15:00:50.417227 242848 net.cpp:408] conv4_3_norm_mbox_conf_flat -> conv4_3_norm_mbox_conf_flat
I0308 15:00:50.417287 242848 net.cpp:150] Setting up conv4_3_norm_mbox_conf_flat
I0308 15:00:50.417301 242848 net.cpp:157] Top shape: 8 11552 (92416)
I0308 15:00:50.417310 242848 net.cpp:165] Memory required for data: 1980205216
I0308 15:00:50.417320 242848 layer_factory.hpp:77] Creating layer conv4_3_norm_mbox_priorbox
I0308 15:00:50.417361 242848 net.cpp:100] Creating Layer conv4_3_norm_mbox_priorbox
I0308 15:00:50.417372 242848 net.cpp:434] conv4_3_norm_mbox_priorbox <- conv4_3_norm_conv4_3_norm_0_split_2
I0308 15:00:50.417384 242848 net.cpp:434] conv4_3_norm_mbox_priorbox <- data_data_0_split_1
I0308 15:00:50.417402 242848 net.cpp:408] conv4_3_norm_mbox_priorbox -> conv4_3_norm_mbox_priorbox
I0308 15:00:50.417469 242848 net.cpp:150] Setting up conv4_3_norm_mbox_priorbox
I0308 15:00:50.417484 242848 net.cpp:157] Top shape: 1 2 23104 (46208)
I0308 15:00:50.417493 242848 net.cpp:165] Memory required for data: 1980390048
I0308 15:00:50.417503 242848 layer_factory.hpp:77] Creating layer fc7_mbox_loc
I0308 15:00:50.417529 242848 net.cpp:100] Creating Layer fc7_mbox_loc
I0308 15:00:50.417541 242848 net.cpp:434] fc7_mbox_loc <- fc7_relu7_0_split_1
I0308 15:00:50.417557 242848 net.cpp:408] fc7_mbox_loc -> fc7_mbox_loc
I0308 15:00:50.426508 242848 net.cpp:150] Setting up fc7_mbox_loc
I0308 15:00:50.426534 242848 net.cpp:157] Top shape: 8 24 19 19 (69312)
I0308 15:00:50.426551 242848 net.cpp:165] Memory required for data: 1980667296
I0308 15:00:50.426578 242848 layer_factory.hpp:77] Creating layer fc7_mbox_loc_perm
I0308 15:00:50.426597 242848 net.cpp:100] Creating Layer fc7_mbox_loc_perm
I0308 15:00:50.426609 242848 net.cpp:434] fc7_mbox_loc_perm <- fc7_mbox_loc
I0308 15:00:50.426630 242848 net.cpp:408] fc7_mbox_loc_perm -> fc7_mbox_loc_perm
I0308 15:00:50.426949 242848 net.cpp:150] Setting up fc7_mbox_loc_perm
I0308 15:00:50.426964 242848 net.cpp:157] Top shape: 8 19 19 24 (69312)
I0308 15:00:50.426973 242848 net.cpp:165] Memory required for data: 1980944544
I0308 15:00:50.426983 242848 layer_factory.hpp:77] Creating layer fc7_mbox_loc_flat
I0308 15:00:50.427000 242848 net.cpp:100] Creating Layer fc7_mbox_loc_flat
I0308 15:00:50.427011 242848 net.cpp:434] fc7_mbox_loc_flat <- fc7_mbox_loc_perm
I0308 15:00:50.427024 242848 net.cpp:408] fc7_mbox_loc_flat -> fc7_mbox_loc_flat
I0308 15:00:50.427086 242848 net.cpp:150] Setting up fc7_mbox_loc_flat
I0308 15:00:50.427100 242848 net.cpp:157] Top shape: 8 8664 (69312)
I0308 15:00:50.427109 242848 net.cpp:165] Memory required for data: 1981221792
I0308 15:00:50.427119 242848 layer_factory.hpp:77] Creating layer fc7_mbox_conf
I0308 15:00:50.427141 242848 net.cpp:100] Creating Layer fc7_mbox_conf
I0308 15:00:50.427152 242848 net.cpp:434] fc7_mbox_conf <- fc7_relu7_0_split_2
I0308 15:00:50.427170 242848 net.cpp:408] fc7_mbox_conf -> fc7_mbox_conf
I0308 15:00:50.433538 242848 net.cpp:150] Setting up fc7_mbox_conf
I0308 15:00:50.433568 242848 net.cpp:157] Top shape: 8 12 19 19 (34656)
I0308 15:00:50.433581 242848 net.cpp:165] Memory required for data: 1981360416
I0308 15:00:50.433606 242848 layer_factory.hpp:77] Creating layer fc7_mbox_conf_perm
I0308 15:00:50.433624 242848 net.cpp:100] Creating Layer fc7_mbox_conf_perm
I0308 15:00:50.433639 242848 net.cpp:434] fc7_mbox_conf_perm <- fc7_mbox_conf
I0308 15:00:50.433660 242848 net.cpp:408] fc7_mbox_conf_perm -> fc7_mbox_conf_perm
I0308 15:00:50.433974 242848 net.cpp:150] Setting up fc7_mbox_conf_perm
I0308 15:00:50.433991 242848 net.cpp:157] Top shape: 8 19 19 12 (34656)
I0308 15:00:50.434000 242848 net.cpp:165] Memory required for data: 1981499040
I0308 15:00:50.434010 242848 layer_factory.hpp:77] Creating layer fc7_mbox_conf_flat
I0308 15:00:50.434027 242848 net.cpp:100] Creating Layer fc7_mbox_conf_flat
I0308 15:00:50.434038 242848 net.cpp:434] fc7_mbox_conf_flat <- fc7_mbox_conf_perm
I0308 15:00:50.434051 242848 net.cpp:408] fc7_mbox_conf_flat -> fc7_mbox_conf_flat
I0308 15:00:50.434114 242848 net.cpp:150] Setting up fc7_mbox_conf_flat
I0308 15:00:50.434128 242848 net.cpp:157] Top shape: 8 4332 (34656)
I0308 15:00:50.434137 242848 net.cpp:165] Memory required for data: 1981637664
I0308 15:00:50.434147 242848 layer_factory.hpp:77] Creating layer fc7_mbox_priorbox
I0308 15:00:50.434161 242848 net.cpp:100] Creating Layer fc7_mbox_priorbox
I0308 15:00:50.434172 242848 net.cpp:434] fc7_mbox_priorbox <- fc7_relu7_0_split_3
I0308 15:00:50.434203 242848 net.cpp:434] fc7_mbox_priorbox <- data_data_0_split_2
I0308 15:00:50.434222 242848 net.cpp:408] fc7_mbox_priorbox -> fc7_mbox_priorbox
I0308 15:00:50.434294 242848 net.cpp:150] Setting up fc7_mbox_priorbox
I0308 15:00:50.434309 242848 net.cpp:157] Top shape: 1 2 8664 (17328)
I0308 15:00:50.434319 242848 net.cpp:165] Memory required for data: 1981706976
I0308 15:00:50.434329 242848 layer_factory.hpp:77] Creating layer conv6_2_mbox_loc
I0308 15:00:50.434351 242848 net.cpp:100] Creating Layer conv6_2_mbox_loc
I0308 15:00:50.434362 242848 net.cpp:434] conv6_2_mbox_loc <- conv6_2_conv6_2_relu_0_split_1
I0308 15:00:50.434381 242848 net.cpp:408] conv6_2_mbox_loc -> conv6_2_mbox_loc
I0308 15:00:50.440778 242848 net.cpp:150] Setting up conv6_2_mbox_loc
I0308 15:00:50.440804 242848 net.cpp:157] Top shape: 8 24 10 10 (19200)
I0308 15:00:50.440821 242848 net.cpp:165] Memory required for data: 1981783776
I0308 15:00:50.440846 242848 layer_factory.hpp:77] Creating layer conv6_2_mbox_loc_perm
I0308 15:00:50.440871 242848 net.cpp:100] Creating Layer conv6_2_mbox_loc_perm
I0308 15:00:50.440882 242848 net.cpp:434] conv6_2_mbox_loc_perm <- conv6_2_mbox_loc
I0308 15:00:50.440901 242848 net.cpp:408] conv6_2_mbox_loc_perm -> conv6_2_mbox_loc_perm
I0308 15:00:50.441232 242848 net.cpp:150] Setting up conv6_2_mbox_loc_perm
I0308 15:00:50.441251 242848 net.cpp:157] Top shape: 8 10 10 24 (19200)
I0308 15:00:50.441263 242848 net.cpp:165] Memory required for data: 1981860576
I0308 15:00:50.441274 242848 layer_factory.hpp:77] Creating layer conv6_2_mbox_loc_flat
I0308 15:00:50.441288 242848 net.cpp:100] Creating Layer conv6_2_mbox_loc_flat
I0308 15:00:50.441298 242848 net.cpp:434] conv6_2_mbox_loc_flat <- conv6_2_mbox_loc_perm
I0308 15:00:50.441311 242848 net.cpp:408] conv6_2_mbox_loc_flat -> conv6_2_mbox_loc_flat
I0308 15:00:50.441375 242848 net.cpp:150] Setting up conv6_2_mbox_loc_flat
I0308 15:00:50.441390 242848 net.cpp:157] Top shape: 8 2400 (19200)
I0308 15:00:50.441400 242848 net.cpp:165] Memory required for data: 1981937376
I0308 15:00:50.441408 242848 layer_factory.hpp:77] Creating layer conv6_2_mbox_conf
I0308 15:00:50.441431 242848 net.cpp:100] Creating Layer conv6_2_mbox_conf
I0308 15:00:50.441442 242848 net.cpp:434] conv6_2_mbox_conf <- conv6_2_conv6_2_relu_0_split_2
I0308 15:00:50.441462 242848 net.cpp:408] conv6_2_mbox_conf -> conv6_2_mbox_conf
I0308 15:00:50.446781 242848 net.cpp:150] Setting up conv6_2_mbox_conf
I0308 15:00:50.446808 242848 net.cpp:157] Top shape: 8 12 10 10 (9600)
I0308 15:00:50.446825 242848 net.cpp:165] Memory required for data: 1981975776
I0308 15:00:50.446851 242848 layer_factory.hpp:77] Creating layer conv6_2_mbox_conf_perm
I0308 15:00:50.446867 242848 net.cpp:100] Creating Layer conv6_2_mbox_conf_perm
I0308 15:00:50.446878 242848 net.cpp:434] conv6_2_mbox_conf_perm <- conv6_2_mbox_conf
I0308 15:00:50.446892 242848 net.cpp:408] conv6_2_mbox_conf_perm -> conv6_2_mbox_conf_perm
I0308 15:00:50.447214 242848 net.cpp:150] Setting up conv6_2_mbox_conf_perm
I0308 15:00:50.447232 242848 net.cpp:157] Top shape: 8 10 10 12 (9600)
I0308 15:00:50.447239 242848 net.cpp:165] Memory required for data: 1982014176
I0308 15:00:50.447250 242848 layer_factory.hpp:77] Creating layer conv6_2_mbox_conf_flat
I0308 15:00:50.447273 242848 net.cpp:100] Creating Layer conv6_2_mbox_conf_flat
I0308 15:00:50.447283 242848 net.cpp:434] conv6_2_mbox_conf_flat <- conv6_2_mbox_conf_perm
I0308 15:00:50.447296 242848 net.cpp:408] conv6_2_mbox_conf_flat -> conv6_2_mbox_conf_flat
I0308 15:00:50.447362 242848 net.cpp:150] Setting up conv6_2_mbox_conf_flat
I0308 15:00:50.447376 242848 net.cpp:157] Top shape: 8 1200 (9600)
I0308 15:00:50.447386 242848 net.cpp:165] Memory required for data: 1982052576
I0308 15:00:50.447396 242848 layer_factory.hpp:77] Creating layer conv6_2_mbox_priorbox
I0308 15:00:50.447412 242848 net.cpp:100] Creating Layer conv6_2_mbox_priorbox
I0308 15:00:50.447423 242848 net.cpp:434] conv6_2_mbox_priorbox <- conv6_2_conv6_2_relu_0_split_3
I0308 15:00:50.447435 242848 net.cpp:434] conv6_2_mbox_priorbox <- data_data_0_split_3
I0308 15:00:50.447470 242848 net.cpp:408] conv6_2_mbox_priorbox -> conv6_2_mbox_priorbox
I0308 15:00:50.447543 242848 net.cpp:150] Setting up conv6_2_mbox_priorbox
I0308 15:00:50.447559 242848 net.cpp:157] Top shape: 1 2 2400 (4800)
I0308 15:00:50.447568 242848 net.cpp:165] Memory required for data: 1982071776
I0308 15:00:50.447578 242848 layer_factory.hpp:77] Creating layer conv7_2_mbox_loc
I0308 15:00:50.447602 242848 net.cpp:100] Creating Layer conv7_2_mbox_loc
I0308 15:00:50.447613 242848 net.cpp:434] conv7_2_mbox_loc <- conv7_2_conv7_2_relu_0_split_1
I0308 15:00:50.447630 242848 net.cpp:408] conv7_2_mbox_loc -> conv7_2_mbox_loc
I0308 15:00:50.451853 242848 net.cpp:150] Setting up conv7_2_mbox_loc
I0308 15:00:50.451879 242848 net.cpp:157] Top shape: 8 24 5 5 (4800)
I0308 15:00:50.451896 242848 net.cpp:165] Memory required for data: 1982090976
I0308 15:00:50.451913 242848 layer_factory.hpp:77] Creating layer conv7_2_mbox_loc_perm
I0308 15:00:50.451930 242848 net.cpp:100] Creating Layer conv7_2_mbox_loc_perm
I0308 15:00:50.451941 242848 net.cpp:434] conv7_2_mbox_loc_perm <- conv7_2_mbox_loc
I0308 15:00:50.451958 242848 net.cpp:408] conv7_2_mbox_loc_perm -> conv7_2_mbox_loc_perm
I0308 15:00:50.452270 242848 net.cpp:150] Setting up conv7_2_mbox_loc_perm
I0308 15:00:50.452286 242848 net.cpp:157] Top shape: 8 5 5 24 (4800)
I0308 15:00:50.452296 242848 net.cpp:165] Memory required for data: 1982110176
I0308 15:00:50.452306 242848 layer_factory.hpp:77] Creating layer conv7_2_mbox_loc_flat
I0308 15:00:50.452322 242848 net.cpp:100] Creating Layer conv7_2_mbox_loc_flat
I0308 15:00:50.452333 242848 net.cpp:434] conv7_2_mbox_loc_flat <- conv7_2_mbox_loc_perm
I0308 15:00:50.452347 242848 net.cpp:408] conv7_2_mbox_loc_flat -> conv7_2_mbox_loc_flat
I0308 15:00:50.452410 242848 net.cpp:150] Setting up conv7_2_mbox_loc_flat
I0308 15:00:50.452425 242848 net.cpp:157] Top shape: 8 600 (4800)
I0308 15:00:50.452433 242848 net.cpp:165] Memory required for data: 1982129376
I0308 15:00:50.452443 242848 layer_factory.hpp:77] Creating layer conv7_2_mbox_conf
I0308 15:00:50.452469 242848 net.cpp:100] Creating Layer conv7_2_mbox_conf
I0308 15:00:50.452481 242848 net.cpp:434] conv7_2_mbox_conf <- conv7_2_conv7_2_relu_0_split_2
I0308 15:00:50.452496 242848 net.cpp:408] conv7_2_mbox_conf -> conv7_2_mbox_conf
I0308 15:00:50.457026 242848 net.cpp:150] Setting up conv7_2_mbox_conf
I0308 15:00:50.457052 242848 net.cpp:157] Top shape: 8 12 5 5 (2400)
I0308 15:00:50.457068 242848 net.cpp:165] Memory required for data: 1982138976
I0308 15:00:50.457095 242848 layer_factory.hpp:77] Creating layer conv7_2_mbox_conf_perm
I0308 15:00:50.457114 242848 net.cpp:100] Creating Layer conv7_2_mbox_conf_perm
I0308 15:00:50.457126 242848 net.cpp:434] conv7_2_mbox_conf_perm <- conv7_2_mbox_conf
I0308 15:00:50.457140 242848 net.cpp:408] conv7_2_mbox_conf_perm -> conv7_2_mbox_conf_perm
I0308 15:00:50.457466 242848 net.cpp:150] Setting up conv7_2_mbox_conf_perm
I0308 15:00:50.457484 242848 net.cpp:157] Top shape: 8 5 5 12 (2400)
I0308 15:00:50.457492 242848 net.cpp:165] Memory required for data: 1982148576
I0308 15:00:50.457502 242848 layer_factory.hpp:77] Creating layer conv7_2_mbox_conf_flat
I0308 15:00:50.457515 242848 net.cpp:100] Creating Layer conv7_2_mbox_conf_flat
I0308 15:00:50.457526 242848 net.cpp:434] conv7_2_mbox_conf_flat <- conv7_2_mbox_conf_perm
I0308 15:00:50.457543 242848 net.cpp:408] conv7_2_mbox_conf_flat -> conv7_2_mbox_conf_flat
I0308 15:00:50.457603 242848 net.cpp:150] Setting up conv7_2_mbox_conf_flat
I0308 15:00:50.457622 242848 net.cpp:157] Top shape: 8 300 (2400)
I0308 15:00:50.457631 242848 net.cpp:165] Memory required for data: 1982158176
I0308 15:00:50.457641 242848 layer_factory.hpp:77] Creating layer conv7_2_mbox_priorbox
I0308 15:00:50.457655 242848 net.cpp:100] Creating Layer conv7_2_mbox_priorbox
I0308 15:00:50.457665 242848 net.cpp:434] conv7_2_mbox_priorbox <- conv7_2_conv7_2_relu_0_split_3
I0308 15:00:50.457679 242848 net.cpp:434] conv7_2_mbox_priorbox <- data_data_0_split_4
I0308 15:00:50.457695 242848 net.cpp:408] conv7_2_mbox_priorbox -> conv7_2_mbox_priorbox
I0308 15:00:50.457785 242848 net.cpp:150] Setting up conv7_2_mbox_priorbox
I0308 15:00:50.457806 242848 net.cpp:157] Top shape: 1 2 600 (1200)
I0308 15:00:50.457816 242848 net.cpp:165] Memory required for data: 1982162976
I0308 15:00:50.457826 242848 layer_factory.hpp:77] Creating layer conv8_2_mbox_loc
I0308 15:00:50.457850 242848 net.cpp:100] Creating Layer conv8_2_mbox_loc
I0308 15:00:50.457860 242848 net.cpp:434] conv8_2_mbox_loc <- conv8_2_conv8_2_relu_0_split_1
I0308 15:00:50.457876 242848 net.cpp:408] conv8_2_mbox_loc -> conv8_2_mbox_loc
I0308 15:00:50.462584 242848 net.cpp:150] Setting up conv8_2_mbox_loc
I0308 15:00:50.462610 242848 net.cpp:157] Top shape: 8 16 3 3 (1152)
I0308 15:00:50.462627 242848 net.cpp:165] Memory required for data: 1982167584
I0308 15:00:50.462677 242848 layer_factory.hpp:77] Creating layer conv8_2_mbox_loc_perm
I0308 15:00:50.462693 242848 net.cpp:100] Creating Layer conv8_2_mbox_loc_perm
I0308 15:00:50.462705 242848 net.cpp:434] conv8_2_mbox_loc_perm <- conv8_2_mbox_loc
I0308 15:00:50.462726 242848 net.cpp:408] conv8_2_mbox_loc_perm -> conv8_2_mbox_loc_perm
I0308 15:00:50.463053 242848 net.cpp:150] Setting up conv8_2_mbox_loc_perm
I0308 15:00:50.463069 242848 net.cpp:157] Top shape: 8 3 3 16 (1152)
I0308 15:00:50.463079 242848 net.cpp:165] Memory required for data: 1982172192
I0308 15:00:50.463089 242848 layer_factory.hpp:77] Creating layer conv8_2_mbox_loc_flat
I0308 15:00:50.463106 242848 net.cpp:100] Creating Layer conv8_2_mbox_loc_flat
I0308 15:00:50.463117 242848 net.cpp:434] conv8_2_mbox_loc_flat <- conv8_2_mbox_loc_perm
I0308 15:00:50.463130 242848 net.cpp:408] conv8_2_mbox_loc_flat -> conv8_2_mbox_loc_flat
I0308 15:00:50.463196 242848 net.cpp:150] Setting up conv8_2_mbox_loc_flat
I0308 15:00:50.463210 242848 net.cpp:157] Top shape: 8 144 (1152)
I0308 15:00:50.463219 242848 net.cpp:165] Memory required for data: 1982176800
I0308 15:00:50.463229 242848 layer_factory.hpp:77] Creating layer conv8_2_mbox_conf
I0308 15:00:50.463253 242848 net.cpp:100] Creating Layer conv8_2_mbox_conf
I0308 15:00:50.463263 242848 net.cpp:434] conv8_2_mbox_conf <- conv8_2_conv8_2_relu_0_split_2
I0308 15:00:50.463281 242848 net.cpp:408] conv8_2_mbox_conf -> conv8_2_mbox_conf
I0308 15:00:50.467524 242848 net.cpp:150] Setting up conv8_2_mbox_conf
I0308 15:00:50.467550 242848 net.cpp:157] Top shape: 8 8 3 3 (576)
I0308 15:00:50.467566 242848 net.cpp:165] Memory required for data: 1982179104
I0308 15:00:50.467592 242848 layer_factory.hpp:77] Creating layer conv8_2_mbox_conf_perm
I0308 15:00:50.467612 242848 net.cpp:100] Creating Layer conv8_2_mbox_conf_perm
I0308 15:00:50.467624 242848 net.cpp:434] conv8_2_mbox_conf_perm <- conv8_2_mbox_conf
I0308 15:00:50.467638 242848 net.cpp:408] conv8_2_mbox_conf_perm -> conv8_2_mbox_conf_perm
I0308 15:00:50.467964 242848 net.cpp:150] Setting up conv8_2_mbox_conf_perm
I0308 15:00:50.467980 242848 net.cpp:157] Top shape: 8 3 3 8 (576)
I0308 15:00:50.467990 242848 net.cpp:165] Memory required for data: 1982181408
I0308 15:00:50.468000 242848 layer_factory.hpp:77] Creating layer conv8_2_mbox_conf_flat
I0308 15:00:50.468014 242848 net.cpp:100] Creating Layer conv8_2_mbox_conf_flat
I0308 15:00:50.468024 242848 net.cpp:434] conv8_2_mbox_conf_flat <- conv8_2_mbox_conf_perm
I0308 15:00:50.468041 242848 net.cpp:408] conv8_2_mbox_conf_flat -> conv8_2_mbox_conf_flat
I0308 15:00:50.468103 242848 net.cpp:150] Setting up conv8_2_mbox_conf_flat
I0308 15:00:50.468121 242848 net.cpp:157] Top shape: 8 72 (576)
I0308 15:00:50.468130 242848 net.cpp:165] Memory required for data: 1982183712
I0308 15:00:50.468139 242848 layer_factory.hpp:77] Creating layer conv8_2_mbox_priorbox
I0308 15:00:50.468154 242848 net.cpp:100] Creating Layer conv8_2_mbox_priorbox
I0308 15:00:50.468165 242848 net.cpp:434] conv8_2_mbox_priorbox <- conv8_2_conv8_2_relu_0_split_3
I0308 15:00:50.468178 242848 net.cpp:434] conv8_2_mbox_priorbox <- data_data_0_split_5
I0308 15:00:50.468194 242848 net.cpp:408] conv8_2_mbox_priorbox -> conv8_2_mbox_priorbox
I0308 15:00:50.468282 242848 net.cpp:150] Setting up conv8_2_mbox_priorbox
I0308 15:00:50.468303 242848 net.cpp:157] Top shape: 1 2 144 (288)
I0308 15:00:50.468312 242848 net.cpp:165] Memory required for data: 1982184864
I0308 15:00:50.468322 242848 layer_factory.hpp:77] Creating layer conv9_2_mbox_loc
I0308 15:00:50.468345 242848 net.cpp:100] Creating Layer conv9_2_mbox_loc
I0308 15:00:50.468358 242848 net.cpp:434] conv9_2_mbox_loc <- conv9_2_conv9_2_relu_0_split_0
I0308 15:00:50.468372 242848 net.cpp:408] conv9_2_mbox_loc -> conv9_2_mbox_loc
I0308 15:00:50.473103 242848 net.cpp:150] Setting up conv9_2_mbox_loc
I0308 15:00:50.473129 242848 net.cpp:157] Top shape: 8 16 1 1 (128)
I0308 15:00:50.473147 242848 net.cpp:165] Memory required for data: 1982185376
I0308 15:00:50.473173 242848 layer_factory.hpp:77] Creating layer conv9_2_mbox_loc_perm
I0308 15:00:50.473188 242848 net.cpp:100] Creating Layer conv9_2_mbox_loc_perm
I0308 15:00:50.473201 242848 net.cpp:434] conv9_2_mbox_loc_perm <- conv9_2_mbox_loc
I0308 15:00:50.473218 242848 net.cpp:408] conv9_2_mbox_loc_perm -> conv9_2_mbox_loc_perm
I0308 15:00:50.473546 242848 net.cpp:150] Setting up conv9_2_mbox_loc_perm
I0308 15:00:50.473562 242848 net.cpp:157] Top shape: 8 1 1 16 (128)
I0308 15:00:50.473572 242848 net.cpp:165] Memory required for data: 1982185888
I0308 15:00:50.473582 242848 layer_factory.hpp:77] Creating layer conv9_2_mbox_loc_flat
I0308 15:00:50.473598 242848 net.cpp:100] Creating Layer conv9_2_mbox_loc_flat
I0308 15:00:50.473609 242848 net.cpp:434] conv9_2_mbox_loc_flat <- conv9_2_mbox_loc_perm
I0308 15:00:50.473625 242848 net.cpp:408] conv9_2_mbox_loc_flat -> conv9_2_mbox_loc_flat
I0308 15:00:50.473687 242848 net.cpp:150] Setting up conv9_2_mbox_loc_flat
I0308 15:00:50.473701 242848 net.cpp:157] Top shape: 8 16 (128)
I0308 15:00:50.473711 242848 net.cpp:165] Memory required for data: 1982186400
I0308 15:00:50.473721 242848 layer_factory.hpp:77] Creating layer conv9_2_mbox_conf
I0308 15:00:50.473745 242848 net.cpp:100] Creating Layer conv9_2_mbox_conf
I0308 15:00:50.473757 242848 net.cpp:434] conv9_2_mbox_conf <- conv9_2_conv9_2_relu_0_split_1
I0308 15:00:50.473773 242848 net.cpp:408] conv9_2_mbox_conf -> conv9_2_mbox_conf
I0308 15:00:50.478047 242848 net.cpp:150] Setting up conv9_2_mbox_conf
I0308 15:00:50.478073 242848 net.cpp:157] Top shape: 8 8 1 1 (64)
I0308 15:00:50.478092 242848 net.cpp:165] Memory required for data: 1982186656
I0308 15:00:50.478121 242848 layer_factory.hpp:77] Creating layer conv9_2_mbox_conf_perm
I0308 15:00:50.478137 242848 net.cpp:100] Creating Layer conv9_2_mbox_conf_perm
I0308 15:00:50.478149 242848 net.cpp:434] conv9_2_mbox_conf_perm <- conv9_2_mbox_conf
I0308 15:00:50.478164 242848 net.cpp:408] conv9_2_mbox_conf_perm -> conv9_2_mbox_conf_perm
I0308 15:00:50.478498 242848 net.cpp:150] Setting up conv9_2_mbox_conf_perm
I0308 15:00:50.478515 242848 net.cpp:157] Top shape: 8 1 1 8 (64)
I0308 15:00:50.478524 242848 net.cpp:165] Memory required for data: 1982186912
I0308 15:00:50.478534 242848 layer_factory.hpp:77] Creating layer conv9_2_mbox_conf_flat
I0308 15:00:50.478549 242848 net.cpp:100] Creating Layer conv9_2_mbox_conf_flat
I0308 15:00:50.478559 242848 net.cpp:434] conv9_2_mbox_conf_flat <- conv9_2_mbox_conf_perm
I0308 15:00:50.478575 242848 net.cpp:408] conv9_2_mbox_conf_flat -> conv9_2_mbox_conf_flat
I0308 15:00:50.478641 242848 net.cpp:150] Setting up conv9_2_mbox_conf_flat
I0308 15:00:50.478655 242848 net.cpp:157] Top shape: 8 8 (64)
I0308 15:00:50.478664 242848 net.cpp:165] Memory required for data: 1982187168
I0308 15:00:50.478674 242848 layer_factory.hpp:77] Creating layer conv9_2_mbox_priorbox
I0308 15:00:50.478688 242848 net.cpp:100] Creating Layer conv9_2_mbox_priorbox
I0308 15:00:50.478699 242848 net.cpp:434] conv9_2_mbox_priorbox <- conv9_2_conv9_2_relu_0_split_2
I0308 15:00:50.478711 242848 net.cpp:434] conv9_2_mbox_priorbox <- data_data_0_split_6
I0308 15:00:50.478729 242848 net.cpp:408] conv9_2_mbox_priorbox -> conv9_2_mbox_priorbox
I0308 15:00:50.478797 242848 net.cpp:150] Setting up conv9_2_mbox_priorbox
I0308 15:00:50.478832 242848 net.cpp:157] Top shape: 1 2 16 (32)
I0308 15:00:50.478842 242848 net.cpp:165] Memory required for data: 1982187296
I0308 15:00:50.478852 242848 layer_factory.hpp:77] Creating layer mbox_loc
I0308 15:00:50.478868 242848 net.cpp:100] Creating Layer mbox_loc
I0308 15:00:50.478879 242848 net.cpp:434] mbox_loc <- conv4_3_norm_mbox_loc_flat
I0308 15:00:50.478891 242848 net.cpp:434] mbox_loc <- fc7_mbox_loc_flat
I0308 15:00:50.478904 242848 net.cpp:434] mbox_loc <- conv6_2_mbox_loc_flat
I0308 15:00:50.478916 242848 net.cpp:434] mbox_loc <- conv7_2_mbox_loc_flat
I0308 15:00:50.478927 242848 net.cpp:434] mbox_loc <- conv8_2_mbox_loc_flat
I0308 15:00:50.478938 242848 net.cpp:434] mbox_loc <- conv9_2_mbox_loc_flat
I0308 15:00:50.478951 242848 net.cpp:408] mbox_loc -> mbox_loc
I0308 15:00:50.479024 242848 net.cpp:150] Setting up mbox_loc
I0308 15:00:50.479038 242848 net.cpp:157] Top shape: 8 34928 (279424)
I0308 15:00:50.479048 242848 net.cpp:165] Memory required for data: 1983304992
I0308 15:00:50.479058 242848 layer_factory.hpp:77] Creating layer mbox_conf
I0308 15:00:50.479075 242848 net.cpp:100] Creating Layer mbox_conf
I0308 15:00:50.479085 242848 net.cpp:434] mbox_conf <- conv4_3_norm_mbox_conf_flat
I0308 15:00:50.479099 242848 net.cpp:434] mbox_conf <- fc7_mbox_conf_flat
I0308 15:00:50.479110 242848 net.cpp:434] mbox_conf <- conv6_2_mbox_conf_flat
I0308 15:00:50.479121 242848 net.cpp:434] mbox_conf <- conv7_2_mbox_conf_flat
I0308 15:00:50.479132 242848 net.cpp:434] mbox_conf <- conv8_2_mbox_conf_flat
I0308 15:00:50.479143 242848 net.cpp:434] mbox_conf <- conv9_2_mbox_conf_flat
I0308 15:00:50.479156 242848 net.cpp:408] mbox_conf -> mbox_conf
I0308 15:00:50.479223 242848 net.cpp:150] Setting up mbox_conf
I0308 15:00:50.479235 242848 net.cpp:157] Top shape: 8 17464 (139712)
I0308 15:00:50.479245 242848 net.cpp:165] Memory required for data: 1983863840
I0308 15:00:50.479254 242848 layer_factory.hpp:77] Creating layer mbox_priorbox
I0308 15:00:50.479269 242848 net.cpp:100] Creating Layer mbox_priorbox
I0308 15:00:50.479279 242848 net.cpp:434] mbox_priorbox <- conv4_3_norm_mbox_priorbox
I0308 15:00:50.479291 242848 net.cpp:434] mbox_priorbox <- fc7_mbox_priorbox
I0308 15:00:50.479302 242848 net.cpp:434] mbox_priorbox <- conv6_2_mbox_priorbox
I0308 15:00:50.479313 242848 net.cpp:434] mbox_priorbox <- conv7_2_mbox_priorbox
I0308 15:00:50.479323 242848 net.cpp:434] mbox_priorbox <- conv8_2_mbox_priorbox
I0308 15:00:50.479334 242848 net.cpp:434] mbox_priorbox <- conv9_2_mbox_priorbox
I0308 15:00:50.479346 242848 net.cpp:408] mbox_priorbox -> mbox_priorbox
I0308 15:00:50.479408 242848 net.cpp:150] Setting up mbox_priorbox
I0308 15:00:50.479420 242848 net.cpp:157] Top shape: 1 2 34928 (69856)
I0308 15:00:50.479429 242848 net.cpp:165] Memory required for data: 1984143264
I0308 15:00:50.479439 242848 layer_factory.hpp:77] Creating layer mbox_conf_reshape
I0308 15:00:50.479466 242848 net.cpp:100] Creating Layer mbox_conf_reshape
I0308 15:00:50.479476 242848 net.cpp:434] mbox_conf_reshape <- mbox_conf
I0308 15:00:50.479493 242848 net.cpp:408] mbox_conf_reshape -> mbox_conf_reshape
I0308 15:00:50.479570 242848 net.cpp:150] Setting up mbox_conf_reshape
I0308 15:00:50.479585 242848 net.cpp:157] Top shape: 8 8732 2 (139712)
I0308 15:00:50.479594 242848 net.cpp:165] Memory required for data: 1984702112
I0308 15:00:50.479604 242848 layer_factory.hpp:77] Creating layer mbox_conf_softmax
I0308 15:00:50.479624 242848 net.cpp:100] Creating Layer mbox_conf_softmax
I0308 15:00:50.479634 242848 net.cpp:434] mbox_conf_softmax <- mbox_conf_reshape
I0308 15:00:50.479646 242848 net.cpp:408] mbox_conf_softmax -> mbox_conf_softmax
I0308 15:00:50.480252 242848 net.cpp:150] Setting up mbox_conf_softmax
I0308 15:00:50.480273 242848 net.cpp:157] Top shape: 8 8732 2 (139712)
I0308 15:00:50.480283 242848 net.cpp:165] Memory required for data: 1985260960
I0308 15:00:50.480293 242848 layer_factory.hpp:77] Creating layer mbox_conf_flatten
I0308 15:00:50.480310 242848 net.cpp:100] Creating Layer mbox_conf_flatten
I0308 15:00:50.480321 242848 net.cpp:434] mbox_conf_flatten <- mbox_conf_softmax
I0308 15:00:50.480352 242848 net.cpp:408] mbox_conf_flatten -> mbox_conf_flatten
I0308 15:00:50.480422 242848 net.cpp:150] Setting up mbox_conf_flatten
I0308 15:00:50.480437 242848 net.cpp:157] Top shape: 8 17464 (139712)
I0308 15:00:50.480446 242848 net.cpp:165] Memory required for data: 1985819808
I0308 15:00:50.480456 242848 layer_factory.hpp:77] Creating layer detection_out
I0308 15:00:50.480492 242848 net.cpp:100] Creating Layer detection_out
I0308 15:00:50.480504 242848 net.cpp:434] detection_out <- mbox_loc
I0308 15:00:50.480515 242848 net.cpp:434] detection_out <- mbox_conf_flatten
I0308 15:00:50.480526 242848 net.cpp:434] detection_out <- mbox_priorbox
I0308 15:00:50.480545 242848 net.cpp:408] detection_out -> detection_out
I0308 15:00:50.482733 242848 net.cpp:150] Setting up detection_out
I0308 15:00:50.482759 242848 net.cpp:157] Top shape: 1 1 1 7 (7)
I0308 15:00:50.482769 242848 net.cpp:165] Memory required for data: 1985819836
I0308 15:00:50.482780 242848 layer_factory.hpp:77] Creating layer detection_eval
I0308 15:00:50.482797 242848 net.cpp:100] Creating Layer detection_eval
I0308 15:00:50.482808 242848 net.cpp:434] detection_eval <- detection_out
I0308 15:00:50.482821 242848 net.cpp:434] detection_eval <- label
I0308 15:00:50.482836 242848 net.cpp:408] detection_eval -> detection_eval
I0308 15:00:50.483808 242848 net.cpp:150] Setting up detection_eval
I0308 15:00:50.483827 242848 net.cpp:157] Top shape: 1 1 2 5 (10)
I0308 15:00:50.483837 242848 net.cpp:165] Memory required for data: 1985819876
I0308 15:00:50.483849 242848 net.cpp:228] detection_eval does not need backward computation.
I0308 15:00:50.483860 242848 net.cpp:228] detection_out does not need backward computation.
I0308 15:00:50.483871 242848 net.cpp:228] mbox_conf_flatten does not need backward computation.
I0308 15:00:50.483881 242848 net.cpp:228] mbox_conf_softmax does not need backward computation.
…
